{"format": "graph-model", "generatedBy": "2.3.1", "convertedBy": "TensorFlow.js Converter v3.9.0", "signature": {"inputs": {"mels": {"name": "mels:0", "dtype": "DT_FLOAT", "tensorShape": {"dim": [{"size": "-1"}, {"size": "-1"}, {"size": "80"}]}}}, "outputs": {"output_0": {"name": "Identity:0", "dtype": "DT_FLOAT", "tensorShape": {"dim": [{"size": "-1"}, {"size": "-1"}, {"size": "1"}]}}}}, "modelTopology": {"node": [{"name": "StatefulPartitionedCall/PartitionedCall/strided_slice/stack", "op": "Const", "attr": {"value": {"tensor": {"dtype": "DT_INT32", "tensorShape": {"dim": [{"size": "1"}]}}}, "dtype": {"type": "DT_INT32"}}}, {"name": "StatefulPartitionedCall/PartitionedCall/strided_slice/stack_1", "op": "Const", "attr": {"value": {"tensor": {"dtype": "DT_INT32", "tensorShape": {"dim": [{"size": "1"}]}}}, "dtype": {"type": "DT_INT32"}}}, {"name": "StatefulPartitionedCall/PartitionedCall/strided_slice/stack_2", "op": "Const", "attr": {"value": {"tensor": {"dtype": "DT_INT32", "tensorShape": {"dim": [{"size": "1"}]}}}, "dtype": {"type": "DT_INT32"}}}, {"name": "StatefulPartitionedCall/PartitionedCall/conv1d_transpose/concat/values_1", "op": "Const", "attr": {"dtype": {"type": "DT_INT32"}, "value": {"tensor": {"dtype": "DT_INT32", "tensorShape": {"dim": [{"size": "1"}]}}}}}, {"name": "StatefulPartitionedCall/PartitionedCall/strided_slice_1/stack", "op": "Const", "attr": {"value": {"tensor": {"dtype": "DT_INT32", "tensorShape": {"dim": [{"size": "1"}]}}}, "dtype": {"type": "DT_INT32"}}}, {"name": "StatefulPartitionedCall/PartitionedCall/strided_slice_1/stack_1", "op": "Const", "attr": {"dtype": {"type": "DT_INT32"}, "value": {"tensor": {"dtype": "DT_INT32", "tensorShape": {"dim": [{"size": "1"}]}}}}}, {"name": "StatefulPartitionedCall/PartitionedCall/strided_slice_1/stack_2", "op": "Const", "attr": {"dtype": {"type": "DT_INT32"}, "value": {"tensor": {"dtype": "DT_INT32", "tensorShape": {"dim": [{"size": "1"}]}}}}}, {"name": "StatefulPartitionedCall/PartitionedCall/mul/y", "op": "Const", "attr": {"value": {"tensor": {"dtype": "DT_INT32", "tensorShape": {}}}, "dtype": {"type": "DT_INT32"}}}, {"name": "StatefulPartitionedCall/PartitionedCall/conv1d_transpose/concat/values_2/1", "op": "Const", "attr": {"value": {"tensor": {"dtype": "DT_INT32", "tensorShape": {}}}, "dtype": {"type": "DT_INT32"}}}, {"name": "StatefulPartitionedCall/PartitionedCall/conv1d_transpose/concat/axis", "op": "Const", "attr": {"dtype": {"type": "DT_INT32"}, "value": {"tensor": {"dtype": "DT_INT32", "tensorShape": {}}}}}, {"name": "StatefulPartitionedCall/PartitionedCall/conv1d_transpose/ExpandDims_1", "op": "Const", "attr": {"value": {"tensor": {"dtype": "DT_FLOAT", "tensorShape": {"dim": [{"size": "1"}, {"size": "4"}, {"size": "4"}, {"size": "4"}]}}}, "dtype": {"type": "DT_FLOAT"}}}, {"name": "StatefulPartitionedCall/sequential/residual_stack_._2._._3/shortcut/conv1d/ExpandDims/dim", "op": "Const", "attr": {"value": {"tensor": {"dtype": "DT_INT32", "tensorShape": {}}}, "dtype": {"type": "DT_INT32"}}}, {"name": "StatefulPartitionedCall/sequential/residual_stack_._2._._3/shortcut/conv1d/ExpandDims_1", "op": "Const", "attr": {"dtype": {"type": "DT_FLOAT"}, "value": {"tensor": {"dtype": "DT_FLOAT", "tensorShape": {"dim": [{"size": "1"}, {"size": "1"}, {"size": "48"}, {"size": "48"}]}}}}}, {"name": "unknown_78", "op": "Const", "attr": {"value": {"tensor": {"dtype": "DT_FLOAT", "tensorShape": {"dim": [{"size": "48"}]}}}, "dtype": {"type": "DT_FLOAT"}}}, {"name": "StatefulPartitionedCall/sequential/residual_stack_._2._._3/conv1d_23/conv1d/SpaceToBatchND/block_shape", "op": "Const", "attr": {"value": {"tensor": {"dtype": "DT_INT32", "tensorShape": {"dim": [{"size": "1"}]}}}, "dtype": {"type": "DT_INT32"}}}, {"name": "StatefulPartitionedCall/sequential/residual_stack_._2._._3/conv1d_23/conv1d/required_space_to_batch_paddings/strided_slice_2", "op": "Const", "attr": {"value": {"tensor": {"dtype": "DT_INT32", "tensorShape": {}}}, "dtype": {"type": "DT_INT32"}}}, {"name": "StatefulPartitionedCall/sequential/residual_stack_._2._._3/conv1d_23/conv1d/required_space_to_batch_paddings/strided_slice_3/stack", "op": "Const", "attr": {"value": {"tensor": {"dtype": "DT_INT32", "tensorShape": {"dim": [{"size": "1"}]}}}, "dtype": {"type": "DT_INT32"}}}, {"name": "StatefulPartitionedCall/sequential/residual_stack_._2._._3/conv1d_23/conv1d/required_space_to_batch_paddings/strided_slice_3/stack_1", "op": "Const", "attr": {"value": {"tensor": {"dtype": "DT_INT32", "tensorShape": {"dim": [{"size": "1"}]}}}, "dtype": {"type": "DT_INT32"}}}, {"name": "StatefulPartitionedCall/sequential/residual_stack_._2._._3/conv1d_23/conv1d/required_space_to_batch_paddings/strided_slice_3/stack_2", "op": "Const", "attr": {"dtype": {"type": "DT_INT32"}, "value": {"tensor": {"dtype": "DT_INT32", "tensorShape": {"dim": [{"size": "1"}]}}}}}, {"name": "StatefulPartitionedCall/sequential/residual_stack_._2._._3/conv1d_23/conv1d/ExpandDims/dim", "op": "Const", "attr": {"value": {"tensor": {"dtype": "DT_INT32", "tensorShape": {}}}, "dtype": {"type": "DT_INT32"}}}, {"name": "StatefulPartitionedCall/sequential/residual_stack_._2._._3/conv1d_23/conv1d/ExpandDims_1", "op": "Const", "attr": {"dtype": {"type": "DT_FLOAT"}, "value": {"tensor": {"dtype": "DT_FLOAT", "tensorShape": {"dim": [{"size": "1"}, {"size": "3"}, {"size": "48"}, {"size": "48"}]}}}}}, {"name": "StatefulPartitionedCall/sequential/residual_stack_._2._._3/conv1d_23/conv1d/BatchToSpaceND/block_shape", "op": "Const", "attr": {"dtype": {"type": "DT_INT32"}, "value": {"tensor": {"dtype": "DT_INT32", "tensorShape": {"dim": [{"size": "1"}]}}}}}, {"name": "StatefulPartitionedCall/sequential/residual_stack_._2._._3/conv1d_23/conv1d/required_space_to_batch_paddings/crops/0/0", "op": "Const", "attr": {"value": {"tensor": {"dtype": "DT_INT32", "tensorShape": {}}}, "dtype": {"type": "DT_INT32"}}}, {"name": "StatefulPartitionedCall/sequential/residual_stack_._2._._2/shortcut/conv1d/ExpandDims/dim", "op": "Const", "attr": {"value": {"tensor": {"dtype": "DT_INT32", "tensorShape": {}}}, "dtype": {"type": "DT_INT32"}}}, {"name": "StatefulPartitionedCall/sequential/residual_stack_._2._._2/shortcut/conv1d/ExpandDims_1", "op": "Const", "attr": {"value": {"tensor": {"dtype": "DT_FLOAT", "tensorShape": {"dim": [{"size": "1"}, {"size": "1"}, {"size": "48"}, {"size": "48"}]}}}, "dtype": {"type": "DT_FLOAT"}}}, {"name": "unknown_72", "op": "Const", "attr": {"dtype": {"type": "DT_FLOAT"}, "value": {"tensor": {"dtype": "DT_FLOAT", "tensorShape": {"dim": [{"size": "48"}]}}}}}, {"name": "StatefulPartitionedCall/sequential/residual_stack_._2._._2/conv1d_21/conv1d/SpaceToBatchND/block_shape", "op": "Const", "attr": {"value": {"tensor": {"dtype": "DT_INT32", "tensorShape": {"dim": [{"size": "1"}]}}}, "dtype": {"type": "DT_INT32"}}}, {"name": "StatefulPartitionedCall/sequential/residual_stack_._2._._2/conv1d_21/conv1d/required_space_to_batch_paddings/strided_slice_2", "op": "Const", "attr": {"value": {"tensor": {"dtype": "DT_INT32", "tensorShape": {}}}, "dtype": {"type": "DT_INT32"}}}, {"name": "StatefulPartitionedCall/sequential/residual_stack_._2._._2/conv1d_21/conv1d/required_space_to_batch_paddings/strided_slice_3/stack", "op": "Const", "attr": {"dtype": {"type": "DT_INT32"}, "value": {"tensor": {"dtype": "DT_INT32", "tensorShape": {"dim": [{"size": "1"}]}}}}}, {"name": "StatefulPartitionedCall/sequential/residual_stack_._2._._2/conv1d_21/conv1d/required_space_to_batch_paddings/strided_slice_3/stack_1", "op": "Const", "attr": {"value": {"tensor": {"dtype": "DT_INT32", "tensorShape": {"dim": [{"size": "1"}]}}}, "dtype": {"type": "DT_INT32"}}}, {"name": "StatefulPartitionedCall/sequential/residual_stack_._2._._2/conv1d_21/conv1d/required_space_to_batch_paddings/strided_slice_3/stack_2", "op": "Const", "attr": {"value": {"tensor": {"dtype": "DT_INT32", "tensorShape": {"dim": [{"size": "1"}]}}}, "dtype": {"type": "DT_INT32"}}}, {"name": "StatefulPartitionedCall/sequential/residual_stack_._2._._2/conv1d_21/conv1d/ExpandDims/dim", "op": "Const", "attr": {"dtype": {"type": "DT_INT32"}, "value": {"tensor": {"dtype": "DT_INT32", "tensorShape": {}}}}}, {"name": "StatefulPartitionedCall/sequential/residual_stack_._2._._2/conv1d_21/conv1d/ExpandDims_1", "op": "Const", "attr": {"value": {"tensor": {"dtype": "DT_FLOAT", "tensorShape": {"dim": [{"size": "1"}, {"size": "3"}, {"size": "48"}, {"size": "48"}]}}}, "dtype": {"type": "DT_FLOAT"}}}, {"name": "StatefulPartitionedCall/sequential/residual_stack_._2._._2/conv1d_21/conv1d/BatchToSpaceND/block_shape", "op": "Const", "attr": {"dtype": {"type": "DT_INT32"}, "value": {"tensor": {"dtype": "DT_INT32", "tensorShape": {"dim": [{"size": "1"}]}}}}}, {"name": "StatefulPartitionedCall/sequential/residual_stack_._2._._2/conv1d_21/conv1d/required_space_to_batch_paddings/crops/0/0", "op": "Const", "attr": {"dtype": {"type": "DT_INT32"}, "value": {"tensor": {"dtype": "DT_INT32", "tensorShape": {}}}}}, {"name": "StatefulPartitionedCall/sequential/residual_stack_._2._._1/shortcut/conv1d/ExpandDims/dim", "op": "Const", "attr": {"value": {"tensor": {"dtype": "DT_INT32", "tensorShape": {}}}, "dtype": {"type": "DT_INT32"}}}, {"name": "StatefulPartitionedCall/sequential/residual_stack_._2._._1/shortcut/conv1d/ExpandDims_1", "op": "Const", "attr": {"dtype": {"type": "DT_FLOAT"}, "value": {"tensor": {"dtype": "DT_FLOAT", "tensorShape": {"dim": [{"size": "1"}, {"size": "1"}, {"size": "48"}, {"size": "48"}]}}}}}, {"name": "unknown_66", "op": "Const", "attr": {"value": {"tensor": {"dtype": "DT_FLOAT", "tensorShape": {"dim": [{"size": "48"}]}}}, "dtype": {"type": "DT_FLOAT"}}}, {"name": "StatefulPartitionedCall/sequential/residual_stack_._2._._1/conv1d_19/conv1d/SpaceToBatchND/block_shape", "op": "Const", "attr": {"dtype": {"type": "DT_INT32"}, "value": {"tensor": {"dtype": "DT_INT32", "tensorShape": {"dim": [{"size": "1"}]}}}}}, {"name": "StatefulPartitionedCall/sequential/residual_stack_._2._._1/conv1d_19/conv1d/required_space_to_batch_paddings/strided_slice_2", "op": "Const", "attr": {"value": {"tensor": {"dtype": "DT_INT32", "tensorShape": {}}}, "dtype": {"type": "DT_INT32"}}}, {"name": "StatefulPartitionedCall/sequential/residual_stack_._2._._1/conv1d_19/conv1d/required_space_to_batch_paddings/strided_slice_3/stack", "op": "Const", "attr": {"value": {"tensor": {"dtype": "DT_INT32", "tensorShape": {"dim": [{"size": "1"}]}}}, "dtype": {"type": "DT_INT32"}}}, {"name": "StatefulPartitionedCall/sequential/residual_stack_._2._._1/conv1d_19/conv1d/required_space_to_batch_paddings/strided_slice_3/stack_1", "op": "Const", "attr": {"value": {"tensor": {"dtype": "DT_INT32", "tensorShape": {"dim": [{"size": "1"}]}}}, "dtype": {"type": "DT_INT32"}}}, {"name": "StatefulPartitionedCall/sequential/residual_stack_._2._._1/conv1d_19/conv1d/required_space_to_batch_paddings/strided_slice_3/stack_2", "op": "Const", "attr": {"value": {"tensor": {"dtype": "DT_INT32", "tensorShape": {"dim": [{"size": "1"}]}}}, "dtype": {"type": "DT_INT32"}}}, {"name": "StatefulPartitionedCall/sequential/residual_stack_._2._._1/conv1d_19/conv1d/ExpandDims/dim", "op": "Const", "attr": {"value": {"tensor": {"dtype": "DT_INT32", "tensorShape": {}}}, "dtype": {"type": "DT_INT32"}}}, {"name": "StatefulPartitionedCall/sequential/residual_stack_._2._._1/conv1d_19/conv1d/ExpandDims_1", "op": "Const", "attr": {"value": {"tensor": {"dtype": "DT_FLOAT", "tensorShape": {"dim": [{"size": "1"}, {"size": "3"}, {"size": "48"}, {"size": "48"}]}}}, "dtype": {"type": "DT_FLOAT"}}}, {"name": "StatefulPartitionedCall/sequential/residual_stack_._2._._1/conv1d_19/conv1d/BatchToSpaceND/block_shape", "op": "Const", "attr": {"value": {"tensor": {"dtype": "DT_INT32", "tensorShape": {"dim": [{"size": "1"}]}}}, "dtype": {"type": "DT_INT32"}}}, {"name": "StatefulPartitionedCall/sequential/residual_stack_._2._._1/conv1d_19/conv1d/required_space_to_batch_paddings/crops/0/0", "op": "Const", "attr": {"dtype": {"type": "DT_INT32"}, "value": {"tensor": {"dtype": "DT_INT32", "tensorShape": {}}}}}, {"name": "StatefulPartitionedCall/sequential/residual_stack_._2._._0/shortcut/conv1d/ExpandDims/dim", "op": "Const", "attr": {"value": {"tensor": {"dtype": "DT_INT32", "tensorShape": {}}}, "dtype": {"type": "DT_INT32"}}}, {"name": "StatefulPartitionedCall/sequential/residual_stack_._2._._0/shortcut/conv1d/ExpandDims_1", "op": "Const", "attr": {"dtype": {"type": "DT_FLOAT"}, "value": {"tensor": {"dtype": "DT_FLOAT", "tensorShape": {"dim": [{"size": "1"}, {"size": "1"}, {"size": "48"}, {"size": "48"}]}}}}}, {"name": "unknown_60", "op": "Const", "attr": {"dtype": {"type": "DT_FLOAT"}, "value": {"tensor": {"dtype": "DT_FLOAT", "tensorShape": {"dim": [{"size": "48"}]}}}}}, {"name": "StatefulPartitionedCall/sequential/conv_transpose_._2/conv2d_transpose_2/strided_slice/stack", "op": "Const", "attr": {"dtype": {"type": "DT_INT32"}, "value": {"tensor": {"dtype": "DT_INT32", "tensorShape": {"dim": [{"size": "1"}]}}}}}, {"name": "StatefulPartitionedCall/sequential/conv_transpose_._2/conv2d_transpose_2/strided_slice/stack_1", "op": "Const", "attr": {"dtype": {"type": "DT_INT32"}, "value": {"tensor": {"dtype": "DT_INT32", "tensorShape": {"dim": [{"size": "1"}]}}}}}, {"name": "StatefulPartitionedCall/sequential/conv_transpose_._2/conv2d_transpose_2/strided_slice/stack_2", "op": "Const", "attr": {"dtype": {"type": "DT_INT32"}, "value": {"tensor": {"dtype": "DT_INT32", "tensorShape": {"dim": [{"size": "1"}]}}}}}, {"name": "StatefulPartitionedCall/sequential/conv_transpose_._2/conv2d_transpose_2/strided_slice_1/stack", "op": "Const", "attr": {"dtype": {"type": "DT_INT32"}, "value": {"tensor": {"dtype": "DT_INT32", "tensorShape": {"dim": [{"size": "1"}]}}}}}, {"name": "StatefulPartitionedCall/sequential/conv_transpose_._2/conv2d_transpose_2/strided_slice_1/stack_1", "op": "Const", "attr": {"dtype": {"type": "DT_INT32"}, "value": {"tensor": {"dtype": "DT_INT32", "tensorShape": {"dim": [{"size": "1"}]}}}}}, {"name": "StatefulPartitionedCall/sequential/conv_transpose_._2/conv2d_transpose_2/strided_slice_1/stack_2", "op": "Const", "attr": {"value": {"tensor": {"dtype": "DT_INT32", "tensorShape": {"dim": [{"size": "1"}]}}}, "dtype": {"type": "DT_INT32"}}}, {"name": "StatefulPartitionedCall/sequential/conv_transpose_._2/conv2d_transpose_2/mul/y", "op": "Const", "attr": {"dtype": {"type": "DT_INT32"}, "value": {"tensor": {"dtype": "DT_INT32", "tensorShape": {}}}}}, {"name": "StatefulPartitionedCall/sequential/conv_transpose_._2/conv2d_transpose_2/stack/2", "op": "Const", "attr": {"value": {"tensor": {"dtype": "DT_INT32", "tensorShape": {}}}, "dtype": {"type": "DT_INT32"}}}, {"name": "StatefulPartitionedCall/sequential/conv_transpose_._2/conv2d_transpose_2/stack/3", "op": "Const", "attr": {"value": {"tensor": {"dtype": "DT_INT32", "tensorShape": {}}}, "dtype": {"type": "DT_INT32"}}}, {"name": "unknown_53", "op": "Const", "attr": {"dtype": {"type": "DT_FLOAT"}, "value": {"tensor": {"dtype": "DT_FLOAT", "tensorShape": {"dim": [{"size": "4"}, {"size": "1"}, {"size": "48"}, {"size": "96"}]}}}}}, {"name": "StatefulPartitionedCall/sequential/residual_stack_._1._._3/shortcut/conv1d/ExpandDims/dim", "op": "Const", "attr": {"dtype": {"type": "DT_INT32"}, "value": {"tensor": {"dtype": "DT_INT32", "tensorShape": {}}}}}, {"name": "StatefulPartitionedCall/sequential/residual_stack_._1._._3/shortcut/conv1d/ExpandDims_1", "op": "Const", "attr": {"value": {"tensor": {"dtype": "DT_FLOAT", "tensorShape": {"dim": [{"size": "1"}, {"size": "1"}, {"size": "96"}, {"size": "96"}]}}}, "dtype": {"type": "DT_FLOAT"}}}, {"name": "unknown_52", "op": "Const", "attr": {"dtype": {"type": "DT_FLOAT"}, "value": {"tensor": {"dtype": "DT_FLOAT", "tensorShape": {"dim": [{"size": "96"}]}}}}}, {"name": "StatefulPartitionedCall/sequential/residual_stack_._1._._3/conv1d_15/conv1d/SpaceToBatchND/block_shape", "op": "Const", "attr": {"value": {"tensor": {"dtype": "DT_INT32", "tensorShape": {"dim": [{"size": "1"}]}}}, "dtype": {"type": "DT_INT32"}}}, {"name": "StatefulPartitionedCall/sequential/residual_stack_._1._._3/conv1d_15/conv1d/required_space_to_batch_paddings/strided_slice_2", "op": "Const", "attr": {"value": {"tensor": {"dtype": "DT_INT32", "tensorShape": {}}}, "dtype": {"type": "DT_INT32"}}}, {"name": "StatefulPartitionedCall/sequential/residual_stack_._1._._3/conv1d_15/conv1d/required_space_to_batch_paddings/strided_slice_3/stack", "op": "Const", "attr": {"dtype": {"type": "DT_INT32"}, "value": {"tensor": {"dtype": "DT_INT32", "tensorShape": {"dim": [{"size": "1"}]}}}}}, {"name": "StatefulPartitionedCall/sequential/residual_stack_._1._._3/conv1d_15/conv1d/required_space_to_batch_paddings/strided_slice_3/stack_1", "op": "Const", "attr": {"dtype": {"type": "DT_INT32"}, "value": {"tensor": {"dtype": "DT_INT32", "tensorShape": {"dim": [{"size": "1"}]}}}}}, {"name": "StatefulPartitionedCall/sequential/residual_stack_._1._._3/conv1d_15/conv1d/required_space_to_batch_paddings/strided_slice_3/stack_2", "op": "Const", "attr": {"value": {"tensor": {"dtype": "DT_INT32", "tensorShape": {"dim": [{"size": "1"}]}}}, "dtype": {"type": "DT_INT32"}}}, {"name": "StatefulPartitionedCall/sequential/residual_stack_._1._._3/conv1d_15/conv1d/ExpandDims/dim", "op": "Const", "attr": {"value": {"tensor": {"dtype": "DT_INT32", "tensorShape": {}}}, "dtype": {"type": "DT_INT32"}}}, {"name": "StatefulPartitionedCall/sequential/residual_stack_._1._._3/conv1d_15/conv1d/ExpandDims_1", "op": "Const", "attr": {"value": {"tensor": {"dtype": "DT_FLOAT", "tensorShape": {"dim": [{"size": "1"}, {"size": "3"}, {"size": "96"}, {"size": "96"}]}}}, "dtype": {"type": "DT_FLOAT"}}}, {"name": "StatefulPartitionedCall/sequential/residual_stack_._1._._3/conv1d_15/conv1d/BatchToSpaceND/block_shape", "op": "Const", "attr": {"dtype": {"type": "DT_INT32"}, "value": {"tensor": {"dtype": "DT_INT32", "tensorShape": {"dim": [{"size": "1"}]}}}}}, {"name": "StatefulPartitionedCall/sequential/residual_stack_._1._._3/conv1d_15/conv1d/required_space_to_batch_paddings/crops/0/0", "op": "Const", "attr": {"value": {"tensor": {"dtype": "DT_INT32", "tensorShape": {}}}, "dtype": {"type": "DT_INT32"}}}, {"name": "StatefulPartitionedCall/sequential/residual_stack_._1._._2/shortcut/conv1d/ExpandDims/dim", "op": "Const", "attr": {"value": {"tensor": {"dtype": "DT_INT32", "tensorShape": {}}}, "dtype": {"type": "DT_INT32"}}}, {"name": "StatefulPartitionedCall/sequential/residual_stack_._1._._2/shortcut/conv1d/ExpandDims_1", "op": "Const", "attr": {"dtype": {"type": "DT_FLOAT"}, "value": {"tensor": {"dtype": "DT_FLOAT", "tensorShape": {"dim": [{"size": "1"}, {"size": "1"}, {"size": "96"}, {"size": "96"}]}}}}}, {"name": "unknown_46", "op": "Const", "attr": {"value": {"tensor": {"dtype": "DT_FLOAT", "tensorShape": {"dim": [{"size": "96"}]}}}, "dtype": {"type": "DT_FLOAT"}}}, {"name": "StatefulPartitionedCall/sequential/residual_stack_._1._._2/conv1d_13/conv1d/SpaceToBatchND/block_shape", "op": "Const", "attr": {"value": {"tensor": {"dtype": "DT_INT32", "tensorShape": {"dim": [{"size": "1"}]}}}, "dtype": {"type": "DT_INT32"}}}, {"name": "StatefulPartitionedCall/sequential/residual_stack_._1._._2/conv1d_13/conv1d/required_space_to_batch_paddings/strided_slice_2", "op": "Const", "attr": {"dtype": {"type": "DT_INT32"}, "value": {"tensor": {"dtype": "DT_INT32", "tensorShape": {}}}}}, {"name": "StatefulPartitionedCall/sequential/residual_stack_._1._._2/conv1d_13/conv1d/required_space_to_batch_paddings/strided_slice_3/stack", "op": "Const", "attr": {"dtype": {"type": "DT_INT32"}, "value": {"tensor": {"dtype": "DT_INT32", "tensorShape": {"dim": [{"size": "1"}]}}}}}, {"name": "StatefulPartitionedCall/sequential/residual_stack_._1._._2/conv1d_13/conv1d/required_space_to_batch_paddings/strided_slice_3/stack_1", "op": "Const", "attr": {"dtype": {"type": "DT_INT32"}, "value": {"tensor": {"dtype": "DT_INT32", "tensorShape": {"dim": [{"size": "1"}]}}}}}, {"name": "StatefulPartitionedCall/sequential/residual_stack_._1._._2/conv1d_13/conv1d/required_space_to_batch_paddings/strided_slice_3/stack_2", "op": "Const", "attr": {"dtype": {"type": "DT_INT32"}, "value": {"tensor": {"dtype": "DT_INT32", "tensorShape": {"dim": [{"size": "1"}]}}}}}, {"name": "StatefulPartitionedCall/sequential/residual_stack_._1._._2/conv1d_13/conv1d/ExpandDims/dim", "op": "Const", "attr": {"dtype": {"type": "DT_INT32"}, "value": {"tensor": {"dtype": "DT_INT32", "tensorShape": {}}}}}, {"name": "StatefulPartitionedCall/sequential/residual_stack_._1._._2/conv1d_13/conv1d/ExpandDims_1", "op": "Const", "attr": {"value": {"tensor": {"dtype": "DT_FLOAT", "tensorShape": {"dim": [{"size": "1"}, {"size": "3"}, {"size": "96"}, {"size": "96"}]}}}, "dtype": {"type": "DT_FLOAT"}}}, {"name": "StatefulPartitionedCall/sequential/residual_stack_._1._._2/conv1d_13/conv1d/BatchToSpaceND/block_shape", "op": "Const", "attr": {"value": {"tensor": {"dtype": "DT_INT32", "tensorShape": {"dim": [{"size": "1"}]}}}, "dtype": {"type": "DT_INT32"}}}, {"name": "StatefulPartitionedCall/sequential/residual_stack_._1._._2/conv1d_13/conv1d/required_space_to_batch_paddings/crops/0/0", "op": "Const", "attr": {"dtype": {"type": "DT_INT32"}, "value": {"tensor": {"dtype": "DT_INT32", "tensorShape": {}}}}}, {"name": "StatefulPartitionedCall/sequential/residual_stack_._1._._1/shortcut/conv1d/ExpandDims/dim", "op": "Const", "attr": {"dtype": {"type": "DT_INT32"}, "value": {"tensor": {"dtype": "DT_INT32", "tensorShape": {}}}}}, {"name": "StatefulPartitionedCall/sequential/residual_stack_._1._._1/shortcut/conv1d/ExpandDims_1", "op": "Const", "attr": {"value": {"tensor": {"dtype": "DT_FLOAT", "tensorShape": {"dim": [{"size": "1"}, {"size": "1"}, {"size": "96"}, {"size": "96"}]}}}, "dtype": {"type": "DT_FLOAT"}}}, {"name": "unknown_40", "op": "Const", "attr": {"value": {"tensor": {"dtype": "DT_FLOAT", "tensorShape": {"dim": [{"size": "96"}]}}}, "dtype": {"type": "DT_FLOAT"}}}, {"name": "StatefulPartitionedCall/sequential/residual_stack_._1._._1/conv1d_11/conv1d/SpaceToBatchND/block_shape", "op": "Const", "attr": {"value": {"tensor": {"dtype": "DT_INT32", "tensorShape": {"dim": [{"size": "1"}]}}}, "dtype": {"type": "DT_INT32"}}}, {"name": "StatefulPartitionedCall/sequential/residual_stack_._1._._1/conv1d_11/conv1d/required_space_to_batch_paddings/strided_slice_2", "op": "Const", "attr": {"dtype": {"type": "DT_INT32"}, "value": {"tensor": {"dtype": "DT_INT32", "tensorShape": {}}}}}, {"name": "StatefulPartitionedCall/sequential/residual_stack_._1._._1/conv1d_11/conv1d/required_space_to_batch_paddings/strided_slice_3/stack", "op": "Const", "attr": {"value": {"tensor": {"dtype": "DT_INT32", "tensorShape": {"dim": [{"size": "1"}]}}}, "dtype": {"type": "DT_INT32"}}}, {"name": "StatefulPartitionedCall/sequential/residual_stack_._1._._1/conv1d_11/conv1d/required_space_to_batch_paddings/strided_slice_3/stack_1", "op": "Const", "attr": {"dtype": {"type": "DT_INT32"}, "value": {"tensor": {"dtype": "DT_INT32", "tensorShape": {"dim": [{"size": "1"}]}}}}}, {"name": "StatefulPartitionedCall/sequential/residual_stack_._1._._1/conv1d_11/conv1d/required_space_to_batch_paddings/strided_slice_3/stack_2", "op": "Const", "attr": {"dtype": {"type": "DT_INT32"}, "value": {"tensor": {"dtype": "DT_INT32", "tensorShape": {"dim": [{"size": "1"}]}}}}}, {"name": "StatefulPartitionedCall/sequential/residual_stack_._1._._1/conv1d_11/conv1d/ExpandDims/dim", "op": "Const", "attr": {"value": {"tensor": {"dtype": "DT_INT32", "tensorShape": {}}}, "dtype": {"type": "DT_INT32"}}}, {"name": "StatefulPartitionedCall/sequential/residual_stack_._1._._1/conv1d_11/conv1d/ExpandDims_1", "op": "Const", "attr": {"dtype": {"type": "DT_FLOAT"}, "value": {"tensor": {"dtype": "DT_FLOAT", "tensorShape": {"dim": [{"size": "1"}, {"size": "3"}, {"size": "96"}, {"size": "96"}]}}}}}, {"name": "StatefulPartitionedCall/sequential/residual_stack_._1._._1/conv1d_11/conv1d/BatchToSpaceND/block_shape", "op": "Const", "attr": {"dtype": {"type": "DT_INT32"}, "value": {"tensor": {"dtype": "DT_INT32", "tensorShape": {"dim": [{"size": "1"}]}}}}}, {"name": "StatefulPartitionedCall/sequential/residual_stack_._1._._1/conv1d_11/conv1d/required_space_to_batch_paddings/crops/0/0", "op": "Const", "attr": {"dtype": {"type": "DT_INT32"}, "value": {"tensor": {"dtype": "DT_INT32", "tensorShape": {}}}}}, {"name": "StatefulPartitionedCall/sequential/residual_stack_._1._._0/shortcut/conv1d/ExpandDims/dim", "op": "Const", "attr": {"value": {"tensor": {"dtype": "DT_INT32", "tensorShape": {}}}, "dtype": {"type": "DT_INT32"}}}, {"name": "StatefulPartitionedCall/sequential/residual_stack_._1._._0/shortcut/conv1d/ExpandDims_1", "op": "Const", "attr": {"value": {"tensor": {"dtype": "DT_FLOAT", "tensorShape": {"dim": [{"size": "1"}, {"size": "1"}, {"size": "96"}, {"size": "96"}]}}}, "dtype": {"type": "DT_FLOAT"}}}, {"name": "unknown_34", "op": "Const", "attr": {"value": {"tensor": {"dtype": "DT_FLOAT", "tensorShape": {"dim": [{"size": "96"}]}}}, "dtype": {"type": "DT_FLOAT"}}}, {"name": "StatefulPartitionedCall/sequential/conv_transpose_._1/conv2d_transpose_1/strided_slice/stack", "op": "Const", "attr": {"dtype": {"type": "DT_INT32"}, "value": {"tensor": {"dtype": "DT_INT32", "tensorShape": {"dim": [{"size": "1"}]}}}}}, {"name": "StatefulPartitionedCall/sequential/conv_transpose_._1/conv2d_transpose_1/strided_slice/stack_1", "op": "Const", "attr": {"dtype": {"type": "DT_INT32"}, "value": {"tensor": {"dtype": "DT_INT32", "tensorShape": {"dim": [{"size": "1"}]}}}}}, {"name": "StatefulPartitionedCall/sequential/conv_transpose_._1/conv2d_transpose_1/strided_slice/stack_2", "op": "Const", "attr": {"value": {"tensor": {"dtype": "DT_INT32", "tensorShape": {"dim": [{"size": "1"}]}}}, "dtype": {"type": "DT_INT32"}}}, {"name": "StatefulPartitionedCall/sequential/conv_transpose_._1/conv2d_transpose_1/strided_slice_1/stack", "op": "Const", "attr": {"value": {"tensor": {"dtype": "DT_INT32", "tensorShape": {"dim": [{"size": "1"}]}}}, "dtype": {"type": "DT_INT32"}}}, {"name": "StatefulPartitionedCall/sequential/conv_transpose_._1/conv2d_transpose_1/strided_slice_1/stack_1", "op": "Const", "attr": {"dtype": {"type": "DT_INT32"}, "value": {"tensor": {"dtype": "DT_INT32", "tensorShape": {"dim": [{"size": "1"}]}}}}}, {"name": "StatefulPartitionedCall/sequential/conv_transpose_._1/conv2d_transpose_1/strided_slice_1/stack_2", "op": "Const", "attr": {"dtype": {"type": "DT_INT32"}, "value": {"tensor": {"dtype": "DT_INT32", "tensorShape": {"dim": [{"size": "1"}]}}}}}, {"name": "StatefulPartitionedCall/sequential/conv_transpose_._1/conv2d_transpose_1/mul/y", "op": "Const", "attr": {"dtype": {"type": "DT_INT32"}, "value": {"tensor": {"dtype": "DT_INT32", "tensorShape": {}}}}}, {"name": "StatefulPartitionedCall/sequential/conv_transpose_._1/conv2d_transpose_1/stack/2", "op": "Const", "attr": {"value": {"tensor": {"dtype": "DT_INT32", "tensorShape": {}}}, "dtype": {"type": "DT_INT32"}}}, {"name": "StatefulPartitionedCall/sequential/conv_transpose_._1/conv2d_transpose_1/stack/3", "op": "Const", "attr": {"value": {"tensor": {"dtype": "DT_INT32", "tensorShape": {}}}, "dtype": {"type": "DT_INT32"}}}, {"name": "unknown_27", "op": "Const", "attr": {"value": {"tensor": {"dtype": "DT_FLOAT", "tensorShape": {"dim": [{"size": "8"}, {"size": "1"}, {"size": "96"}, {"size": "192"}]}}}, "dtype": {"type": "DT_FLOAT"}}}, {"name": "StatefulPartitionedCall/sequential/residual_stack_._0._._3/shortcut/conv1d/ExpandDims/dim", "op": "Const", "attr": {"dtype": {"type": "DT_INT32"}, "value": {"tensor": {"dtype": "DT_INT32", "tensorShape": {}}}}}, {"name": "StatefulPartitionedCall/sequential/residual_stack_._0._._3/shortcut/conv1d/ExpandDims_1", "op": "Const", "attr": {"value": {"tensor": {"dtype": "DT_FLOAT", "tensorShape": {"dim": [{"size": "1"}, {"size": "1"}, {"size": "192"}, {"size": "192"}]}}}, "dtype": {"type": "DT_FLOAT"}}}, {"name": "unknown_26", "op": "Const", "attr": {"value": {"tensor": {"dtype": "DT_FLOAT", "tensorShape": {"dim": [{"size": "192"}]}}}, "dtype": {"type": "DT_FLOAT"}}}, {"name": "StatefulPartitionedCall/sequential/residual_stack_._0._._3/conv1d_7/conv1d/SpaceToBatchND/block_shape", "op": "Const", "attr": {"value": {"tensor": {"dtype": "DT_INT32", "tensorShape": {"dim": [{"size": "1"}]}}}, "dtype": {"type": "DT_INT32"}}}, {"name": "StatefulPartitionedCall/sequential/residual_stack_._0._._3/conv1d_7/conv1d/required_space_to_batch_paddings/strided_slice_2", "op": "Const", "attr": {"dtype": {"type": "DT_INT32"}, "value": {"tensor": {"dtype": "DT_INT32", "tensorShape": {}}}}}, {"name": "StatefulPartitionedCall/sequential/residual_stack_._0._._3/conv1d_7/conv1d/required_space_to_batch_paddings/strided_slice_3/stack", "op": "Const", "attr": {"value": {"tensor": {"dtype": "DT_INT32", "tensorShape": {"dim": [{"size": "1"}]}}}, "dtype": {"type": "DT_INT32"}}}, {"name": "StatefulPartitionedCall/sequential/residual_stack_._0._._3/conv1d_7/conv1d/required_space_to_batch_paddings/strided_slice_3/stack_1", "op": "Const", "attr": {"dtype": {"type": "DT_INT32"}, "value": {"tensor": {"dtype": "DT_INT32", "tensorShape": {"dim": [{"size": "1"}]}}}}}, {"name": "StatefulPartitionedCall/sequential/residual_stack_._0._._3/conv1d_7/conv1d/required_space_to_batch_paddings/strided_slice_3/stack_2", "op": "Const", "attr": {"dtype": {"type": "DT_INT32"}, "value": {"tensor": {"dtype": "DT_INT32", "tensorShape": {"dim": [{"size": "1"}]}}}}}, {"name": "StatefulPartitionedCall/sequential/residual_stack_._0._._3/conv1d_7/conv1d/ExpandDims/dim", "op": "Const", "attr": {"value": {"tensor": {"dtype": "DT_INT32", "tensorShape": {}}}, "dtype": {"type": "DT_INT32"}}}, {"name": "StatefulPartitionedCall/sequential/residual_stack_._0._._3/conv1d_7/conv1d/ExpandDims_1", "op": "Const", "attr": {"value": {"tensor": {"dtype": "DT_FLOAT", "tensorShape": {"dim": [{"size": "1"}, {"size": "3"}, {"size": "192"}, {"size": "192"}]}}}, "dtype": {"type": "DT_FLOAT"}}}, {"name": "StatefulPartitionedCall/sequential/residual_stack_._0._._3/conv1d_7/conv1d/BatchToSpaceND/block_shape", "op": "Const", "attr": {"dtype": {"type": "DT_INT32"}, "value": {"tensor": {"dtype": "DT_INT32", "tensorShape": {"dim": [{"size": "1"}]}}}}}, {"name": "StatefulPartitionedCall/sequential/residual_stack_._0._._3/conv1d_7/conv1d/required_space_to_batch_paddings/crops/0/0", "op": "Const", "attr": {"value": {"tensor": {"dtype": "DT_INT32", "tensorShape": {}}}, "dtype": {"type": "DT_INT32"}}}, {"name": "StatefulPartitionedCall/sequential/residual_stack_._0._._2/shortcut/conv1d/ExpandDims/dim", "op": "Const", "attr": {"dtype": {"type": "DT_INT32"}, "value": {"tensor": {"dtype": "DT_INT32", "tensorShape": {}}}}}, {"name": "StatefulPartitionedCall/sequential/residual_stack_._0._._2/shortcut/conv1d/ExpandDims_1", "op": "Const", "attr": {"value": {"tensor": {"dtype": "DT_FLOAT", "tensorShape": {"dim": [{"size": "1"}, {"size": "1"}, {"size": "192"}, {"size": "192"}]}}}, "dtype": {"type": "DT_FLOAT"}}}, {"name": "unknown_20", "op": "Const", "attr": {"value": {"tensor": {"dtype": "DT_FLOAT", "tensorShape": {"dim": [{"size": "192"}]}}}, "dtype": {"type": "DT_FLOAT"}}}, {"name": "StatefulPartitionedCall/sequential/residual_stack_._0._._2/conv1d_5/conv1d/SpaceToBatchND/block_shape", "op": "Const", "attr": {"value": {"tensor": {"dtype": "DT_INT32", "tensorShape": {"dim": [{"size": "1"}]}}}, "dtype": {"type": "DT_INT32"}}}, {"name": "StatefulPartitionedCall/sequential/residual_stack_._0._._2/conv1d_5/conv1d/required_space_to_batch_paddings/strided_slice_2", "op": "Const", "attr": {"dtype": {"type": "DT_INT32"}, "value": {"tensor": {"dtype": "DT_INT32", "tensorShape": {}}}}}, {"name": "StatefulPartitionedCall/sequential/residual_stack_._0._._2/conv1d_5/conv1d/required_space_to_batch_paddings/strided_slice_3/stack", "op": "Const", "attr": {"value": {"tensor": {"dtype": "DT_INT32", "tensorShape": {"dim": [{"size": "1"}]}}}, "dtype": {"type": "DT_INT32"}}}, {"name": "StatefulPartitionedCall/sequential/residual_stack_._0._._2/conv1d_5/conv1d/required_space_to_batch_paddings/strided_slice_3/stack_1", "op": "Const", "attr": {"value": {"tensor": {"dtype": "DT_INT32", "tensorShape": {"dim": [{"size": "1"}]}}}, "dtype": {"type": "DT_INT32"}}}, {"name": "StatefulPartitionedCall/sequential/residual_stack_._0._._2/conv1d_5/conv1d/required_space_to_batch_paddings/strided_slice_3/stack_2", "op": "Const", "attr": {"value": {"tensor": {"dtype": "DT_INT32", "tensorShape": {"dim": [{"size": "1"}]}}}, "dtype": {"type": "DT_INT32"}}}, {"name": "StatefulPartitionedCall/sequential/residual_stack_._0._._2/conv1d_5/conv1d/ExpandDims/dim", "op": "Const", "attr": {"value": {"tensor": {"dtype": "DT_INT32", "tensorShape": {}}}, "dtype": {"type": "DT_INT32"}}}, {"name": "StatefulPartitionedCall/sequential/residual_stack_._0._._2/conv1d_5/conv1d/ExpandDims_1", "op": "Const", "attr": {"value": {"tensor": {"dtype": "DT_FLOAT", "tensorShape": {"dim": [{"size": "1"}, {"size": "3"}, {"size": "192"}, {"size": "192"}]}}}, "dtype": {"type": "DT_FLOAT"}}}, {"name": "StatefulPartitionedCall/sequential/residual_stack_._0._._2/conv1d_5/conv1d/BatchToSpaceND/block_shape", "op": "Const", "attr": {"dtype": {"type": "DT_INT32"}, "value": {"tensor": {"dtype": "DT_INT32", "tensorShape": {"dim": [{"size": "1"}]}}}}}, {"name": "StatefulPartitionedCall/sequential/residual_stack_._0._._2/conv1d_5/conv1d/required_space_to_batch_paddings/crops/0/0", "op": "Const", "attr": {"dtype": {"type": "DT_INT32"}, "value": {"tensor": {"dtype": "DT_INT32", "tensorShape": {}}}}}, {"name": "StatefulPartitionedCall/sequential/residual_stack_._0._._1/shortcut/conv1d/ExpandDims/dim", "op": "Const", "attr": {"dtype": {"type": "DT_INT32"}, "value": {"tensor": {"dtype": "DT_INT32", "tensorShape": {}}}}}, {"name": "StatefulPartitionedCall/sequential/residual_stack_._0._._1/shortcut/conv1d/ExpandDims_1", "op": "Const", "attr": {"value": {"tensor": {"dtype": "DT_FLOAT", "tensorShape": {"dim": [{"size": "1"}, {"size": "1"}, {"size": "192"}, {"size": "192"}]}}}, "dtype": {"type": "DT_FLOAT"}}}, {"name": "unknown_14", "op": "Const", "attr": {"dtype": {"type": "DT_FLOAT"}, "value": {"tensor": {"dtype": "DT_FLOAT", "tensorShape": {"dim": [{"size": "192"}]}}}}}, {"name": "StatefulPartitionedCall/sequential/residual_stack_._0._._1/conv1d_3/conv1d/SpaceToBatchND/block_shape", "op": "Const", "attr": {"value": {"tensor": {"dtype": "DT_INT32", "tensorShape": {"dim": [{"size": "1"}]}}}, "dtype": {"type": "DT_INT32"}}}, {"name": "StatefulPartitionedCall/sequential/residual_stack_._0._._1/conv1d_3/conv1d/required_space_to_batch_paddings/strided_slice_2", "op": "Const", "attr": {"dtype": {"type": "DT_INT32"}, "value": {"tensor": {"dtype": "DT_INT32", "tensorShape": {}}}}}, {"name": "StatefulPartitionedCall/sequential/residual_stack_._0._._1/conv1d_3/conv1d/required_space_to_batch_paddings/strided_slice_3/stack", "op": "Const", "attr": {"dtype": {"type": "DT_INT32"}, "value": {"tensor": {"dtype": "DT_INT32", "tensorShape": {"dim": [{"size": "1"}]}}}}}, {"name": "StatefulPartitionedCall/sequential/residual_stack_._0._._1/conv1d_3/conv1d/required_space_to_batch_paddings/strided_slice_3/stack_1", "op": "Const", "attr": {"dtype": {"type": "DT_INT32"}, "value": {"tensor": {"dtype": "DT_INT32", "tensorShape": {"dim": [{"size": "1"}]}}}}}, {"name": "StatefulPartitionedCall/sequential/residual_stack_._0._._1/conv1d_3/conv1d/required_space_to_batch_paddings/strided_slice_3/stack_2", "op": "Const", "attr": {"dtype": {"type": "DT_INT32"}, "value": {"tensor": {"dtype": "DT_INT32", "tensorShape": {"dim": [{"size": "1"}]}}}}}, {"name": "StatefulPartitionedCall/sequential/residual_stack_._0._._1/conv1d_3/conv1d/ExpandDims/dim", "op": "Const", "attr": {"value": {"tensor": {"dtype": "DT_INT32", "tensorShape": {}}}, "dtype": {"type": "DT_INT32"}}}, {"name": "StatefulPartitionedCall/sequential/residual_stack_._0._._1/conv1d_3/conv1d/ExpandDims_1", "op": "Const", "attr": {"dtype": {"type": "DT_FLOAT"}, "value": {"tensor": {"dtype": "DT_FLOAT", "tensorShape": {"dim": [{"size": "1"}, {"size": "3"}, {"size": "192"}, {"size": "192"}]}}}}}, {"name": "StatefulPartitionedCall/sequential/residual_stack_._0._._1/conv1d_3/conv1d/BatchToSpaceND/block_shape", "op": "Const", "attr": {"dtype": {"type": "DT_INT32"}, "value": {"tensor": {"dtype": "DT_INT32", "tensorShape": {"dim": [{"size": "1"}]}}}}}, {"name": "StatefulPartitionedCall/sequential/residual_stack_._0._._1/conv1d_3/conv1d/required_space_to_batch_paddings/crops/0/0", "op": "Const", "attr": {"value": {"tensor": {"dtype": "DT_INT32", "tensorShape": {}}}, "dtype": {"type": "DT_INT32"}}}, {"name": "StatefulPartitionedCall/sequential/residual_stack_._0._._0/shortcut/conv1d/ExpandDims/dim", "op": "Const", "attr": {"dtype": {"type": "DT_INT32"}, "value": {"tensor": {"dtype": "DT_INT32", "tensorShape": {}}}}}, {"name": "StatefulPartitionedCall/sequential/residual_stack_._0._._0/shortcut/conv1d/ExpandDims_1", "op": "Const", "attr": {"value": {"tensor": {"dtype": "DT_FLOAT", "tensorShape": {"dim": [{"size": "1"}, {"size": "1"}, {"size": "192"}, {"size": "192"}]}}}, "dtype": {"type": "DT_FLOAT"}}}, {"name": "unknown_8", "op": "Const", "attr": {"dtype": {"type": "DT_FLOAT"}, "value": {"tensor": {"dtype": "DT_FLOAT", "tensorShape": {"dim": [{"size": "192"}]}}}}}, {"name": "StatefulPartitionedCall/sequential/conv_transpose_._0/conv2d_transpose/strided_slice/stack", "op": "Const", "attr": {"value": {"tensor": {"dtype": "DT_INT32", "tensorShape": {"dim": [{"size": "1"}]}}}, "dtype": {"type": "DT_INT32"}}}, {"name": "StatefulPartitionedCall/sequential/conv_transpose_._0/conv2d_transpose/strided_slice/stack_1", "op": "Const", "attr": {"dtype": {"type": "DT_INT32"}, "value": {"tensor": {"dtype": "DT_INT32", "tensorShape": {"dim": [{"size": "1"}]}}}}}, {"name": "StatefulPartitionedCall/sequential/conv_transpose_._0/conv2d_transpose/strided_slice/stack_2", "op": "Const", "attr": {"value": {"tensor": {"dtype": "DT_INT32", "tensorShape": {"dim": [{"size": "1"}]}}}, "dtype": {"type": "DT_INT32"}}}, {"name": "StatefulPartitionedCall/sequential/conv_transpose_._0/conv2d_transpose/strided_slice_1/stack", "op": "Const", "attr": {"dtype": {"type": "DT_INT32"}, "value": {"tensor": {"dtype": "DT_INT32", "tensorShape": {"dim": [{"size": "1"}]}}}}}, {"name": "StatefulPartitionedCall/sequential/conv_transpose_._0/conv2d_transpose/strided_slice_1/stack_1", "op": "Const", "attr": {"value": {"tensor": {"dtype": "DT_INT32", "tensorShape": {"dim": [{"size": "1"}]}}}, "dtype": {"type": "DT_INT32"}}}, {"name": "StatefulPartitionedCall/sequential/conv_transpose_._0/conv2d_transpose/strided_slice_1/stack_2", "op": "Const", "attr": {"dtype": {"type": "DT_INT32"}, "value": {"tensor": {"dtype": "DT_INT32", "tensorShape": {"dim": [{"size": "1"}]}}}}}, {"name": "StatefulPartitionedCall/sequential/conv_transpose_._0/conv2d_transpose/mul/y", "op": "Const", "attr": {"dtype": {"type": "DT_INT32"}, "value": {"tensor": {"dtype": "DT_INT32", "tensorShape": {}}}}}, {"name": "StatefulPartitionedCall/sequential/conv_transpose_._0/conv2d_transpose/stack/2", "op": "Const", "attr": {"dtype": {"type": "DT_INT32"}, "value": {"tensor": {"dtype": "DT_INT32", "tensorShape": {}}}}}, {"name": "StatefulPartitionedCall/sequential/conv_transpose_._0/conv2d_transpose/stack/3", "op": "Const", "attr": {"value": {"tensor": {"dtype": "DT_INT32", "tensorShape": {}}}, "dtype": {"type": "DT_INT32"}}}, {"name": "unknown_1", "op": "Const", "attr": {"dtype": {"type": "DT_FLOAT"}, "value": {"tensor": {"dtype": "DT_FLOAT", "tensorShape": {"dim": [{"size": "16"}, {"size": "1"}, {"size": "192"}, {"size": "384"}]}}}}}, {"name": "StatefulPartitionedCall/sequential/first_reflect_padding/MirrorPad/paddings", "op": "Const", "attr": {"dtype": {"type": "DT_INT32"}, "value": {"tensor": {"dtype": "DT_INT32", "tensorShape": {"dim": [{"size": "3"}, {"size": "2"}]}}}}}, {"name": "StatefulPartitionedCall/sequential/conv1d/conv1d/ExpandDims/dim", "op": "Const", "attr": {"value": {"tensor": {"dtype": "DT_INT32", "tensorShape": {}}}, "dtype": {"type": "DT_INT32"}}}, {"name": "StatefulPartitionedCall/sequential/conv1d/conv1d/ExpandDims_1", "op": "Const", "attr": {"dtype": {"type": "DT_FLOAT"}, "value": {"tensor": {"dtype": "DT_FLOAT", "tensorShape": {"dim": [{"size": "1"}, {"size": "7"}, {"size": "80"}, {"size": "384"}]}}}}}, {"name": "unknown_0", "op": "Const", "attr": {"dtype": {"type": "DT_FLOAT"}, "value": {"tensor": {"dtype": "DT_FLOAT", "tensorShape": {"dim": [{"size": "384"}]}}}}}, {"name": "StatefulPartitionedCall/sequential/conv_transpose_._0/ExpandDims/dim", "op": "Const", "attr": {"dtype": {"type": "DT_INT32"}, "value": {"tensor": {"dtype": "DT_INT32", "tensorShape": {}}}}}, {"name": "unknown_2", "op": "Const", "attr": {"dtype": {"type": "DT_FLOAT"}, "value": {"tensor": {"dtype": "DT_FLOAT", "tensorShape": {"dim": [{"size": "192"}]}}}}}, {"name": "StatefulPartitionedCall/sequential/residual_stack_._0._._0/tf_reflection_pad1d/MirrorPad/paddings", "op": "Const", "attr": {"value": {"tensor": {"dtype": "DT_INT32", "tensorShape": {"dim": [{"size": "3"}, {"size": "2"}]}}}, "dtype": {"type": "DT_INT32"}}}, {"name": "StatefulPartitionedCall/sequential/residual_stack_._0._._0/conv1d_1/conv1d/ExpandDims/dim", "op": "Const", "attr": {"value": {"tensor": {"dtype": "DT_INT32", "tensorShape": {}}}, "dtype": {"type": "DT_INT32"}}}, {"name": "StatefulPartitionedCall/sequential/residual_stack_._0._._0/conv1d_1/conv1d/ExpandDims_1", "op": "Const", "attr": {"value": {"tensor": {"dtype": "DT_FLOAT", "tensorShape": {"dim": [{"size": "1"}, {"size": "3"}, {"size": "192"}, {"size": "192"}]}}}, "dtype": {"type": "DT_FLOAT"}}}, {"name": "unknown_4", "op": "Const", "attr": {"value": {"tensor": {"dtype": "DT_FLOAT", "tensorShape": {"dim": [{"size": "192"}]}}}, "dtype": {"type": "DT_FLOAT"}}}, {"name": "StatefulPartitionedCall/sequential/residual_stack_._0._._0/conv1d_2/conv1d/ExpandDims/dim", "op": "Const", "attr": {"value": {"tensor": {"dtype": "DT_INT32", "tensorShape": {}}}, "dtype": {"type": "DT_INT32"}}}, {"name": "StatefulPartitionedCall/sequential/residual_stack_._0._._0/conv1d_2/conv1d/ExpandDims_1", "op": "Const", "attr": {"dtype": {"type": "DT_FLOAT"}, "value": {"tensor": {"dtype": "DT_FLOAT", "tensorShape": {"dim": [{"size": "1"}, {"size": "1"}, {"size": "192"}, {"size": "192"}]}}}}}, {"name": "unknown_6", "op": "Const", "attr": {"value": {"tensor": {"dtype": "DT_FLOAT", "tensorShape": {"dim": [{"size": "192"}]}}}, "dtype": {"type": "DT_FLOAT"}}}, {"name": "StatefulPartitionedCall/sequential/residual_stack_._0._._1/tf_reflection_pad1d_1/MirrorPad/paddings", "op": "Const", "attr": {"value": {"tensor": {"dtype": "DT_INT32", "tensorShape": {"dim": [{"size": "3"}, {"size": "2"}]}}}, "dtype": {"type": "DT_INT32"}}}, {"name": "StatefulPartitionedCall/sequential/residual_stack_._0._._1/conv1d_3/conv1d/strided_slice/stack", "op": "Const", "attr": {"dtype": {"type": "DT_INT32"}, "value": {"tensor": {"dtype": "DT_INT32", "tensorShape": {"dim": [{"size": "1"}]}}}}}, {"name": "StatefulPartitionedCall/sequential/residual_stack_._0._._1/conv1d_3/conv1d/strided_slice/stack_1", "op": "Const", "attr": {"value": {"tensor": {"dtype": "DT_INT32", "tensorShape": {"dim": [{"size": "1"}]}}}, "dtype": {"type": "DT_INT32"}}}, {"name": "StatefulPartitionedCall/sequential/residual_stack_._0._._1/conv1d_3/conv1d/strided_slice/stack_2", "op": "Const", "attr": {"dtype": {"type": "DT_INT32"}, "value": {"tensor": {"dtype": "DT_INT32", "tensorShape": {"dim": [{"size": "1"}]}}}}}, {"name": "StatefulPartitionedCall/sequential/residual_stack_._0._._1/conv1d_3/conv1d/dilation_rate", "op": "Const", "attr": {"value": {"tensor": {"dtype": "DT_INT32", "tensorShape": {"dim": [{"size": "1"}]}}}, "dtype": {"type": "DT_INT32"}}}, {"name": "StatefulPartitionedCall/sequential/residual_stack_._0._._1/conv1d_3/conv1d/required_space_to_batch_paddings/strided_slice_4/stack", "op": "Const", "attr": {"dtype": {"type": "DT_INT32"}, "value": {"tensor": {"dtype": "DT_INT32", "tensorShape": {"dim": [{"size": "1"}]}}}}}, {"name": "StatefulPartitionedCall/sequential/residual_stack_._0._._1/conv1d_3/conv1d/required_space_to_batch_paddings/strided_slice_4/stack_1", "op": "Const", "attr": {"dtype": {"type": "DT_INT32"}, "value": {"tensor": {"dtype": "DT_INT32", "tensorShape": {"dim": [{"size": "1"}]}}}}}, {"name": "StatefulPartitionedCall/sequential/residual_stack_._0._._1/conv1d_3/conv1d/required_space_to_batch_paddings/strided_slice_4/stack_2", "op": "Const", "attr": {"value": {"tensor": {"dtype": "DT_INT32", "tensorShape": {"dim": [{"size": "1"}]}}}, "dtype": {"type": "DT_INT32"}}}, {"name": "unknown_10", "op": "Const", "attr": {"value": {"tensor": {"dtype": "DT_FLOAT", "tensorShape": {"dim": [{"size": "192"}]}}}, "dtype": {"type": "DT_FLOAT"}}}, {"name": "StatefulPartitionedCall/sequential/residual_stack_._0._._1/conv1d_4/conv1d/ExpandDims/dim", "op": "Const", "attr": {"dtype": {"type": "DT_INT32"}, "value": {"tensor": {"dtype": "DT_INT32", "tensorShape": {}}}}}, {"name": "StatefulPartitionedCall/sequential/residual_stack_._0._._1/conv1d_4/conv1d/ExpandDims_1", "op": "Const", "attr": {"dtype": {"type": "DT_FLOAT"}, "value": {"tensor": {"dtype": "DT_FLOAT", "tensorShape": {"dim": [{"size": "1"}, {"size": "1"}, {"size": "192"}, {"size": "192"}]}}}}}, {"name": "unknown_12", "op": "Const", "attr": {"dtype": {"type": "DT_FLOAT"}, "value": {"tensor": {"dtype": "DT_FLOAT", "tensorShape": {"dim": [{"size": "192"}]}}}}}, {"name": "StatefulPartitionedCall/sequential/residual_stack_._0._._2/tf_reflection_pad1d_2/MirrorPad/paddings", "op": "Const", "attr": {"value": {"tensor": {"dtype": "DT_INT32", "tensorShape": {"dim": [{"size": "3"}, {"size": "2"}]}}}, "dtype": {"type": "DT_INT32"}}}, {"name": "StatefulPartitionedCall/sequential/residual_stack_._0._._2/conv1d_5/conv1d/strided_slice/stack", "op": "Const", "attr": {"value": {"tensor": {"dtype": "DT_INT32", "tensorShape": {"dim": [{"size": "1"}]}}}, "dtype": {"type": "DT_INT32"}}}, {"name": "StatefulPartitionedCall/sequential/residual_stack_._0._._2/conv1d_5/conv1d/strided_slice/stack_1", "op": "Const", "attr": {"value": {"tensor": {"dtype": "DT_INT32", "tensorShape": {"dim": [{"size": "1"}]}}}, "dtype": {"type": "DT_INT32"}}}, {"name": "StatefulPartitionedCall/sequential/residual_stack_._0._._2/conv1d_5/conv1d/strided_slice/stack_2", "op": "Const", "attr": {"value": {"tensor": {"dtype": "DT_INT32", "tensorShape": {"dim": [{"size": "1"}]}}}, "dtype": {"type": "DT_INT32"}}}, {"name": "StatefulPartitionedCall/sequential/residual_stack_._0._._2/conv1d_5/conv1d/dilation_rate", "op": "Const", "attr": {"value": {"tensor": {"dtype": "DT_INT32", "tensorShape": {"dim": [{"size": "1"}]}}}, "dtype": {"type": "DT_INT32"}}}, {"name": "StatefulPartitionedCall/sequential/residual_stack_._0._._2/conv1d_5/conv1d/required_space_to_batch_paddings/strided_slice_4/stack", "op": "Const", "attr": {"dtype": {"type": "DT_INT32"}, "value": {"tensor": {"dtype": "DT_INT32", "tensorShape": {"dim": [{"size": "1"}]}}}}}, {"name": "StatefulPartitionedCall/sequential/residual_stack_._0._._2/conv1d_5/conv1d/required_space_to_batch_paddings/strided_slice_4/stack_1", "op": "Const", "attr": {"value": {"tensor": {"dtype": "DT_INT32", "tensorShape": {"dim": [{"size": "1"}]}}}, "dtype": {"type": "DT_INT32"}}}, {"name": "StatefulPartitionedCall/sequential/residual_stack_._0._._2/conv1d_5/conv1d/required_space_to_batch_paddings/strided_slice_4/stack_2", "op": "Const", "attr": {"dtype": {"type": "DT_INT32"}, "value": {"tensor": {"dtype": "DT_INT32", "tensorShape": {"dim": [{"size": "1"}]}}}}}, {"name": "unknown_16", "op": "Const", "attr": {"dtype": {"type": "DT_FLOAT"}, "value": {"tensor": {"dtype": "DT_FLOAT", "tensorShape": {"dim": [{"size": "192"}]}}}}}, {"name": "StatefulPartitionedCall/sequential/residual_stack_._0._._2/conv1d_6/conv1d/ExpandDims/dim", "op": "Const", "attr": {"dtype": {"type": "DT_INT32"}, "value": {"tensor": {"dtype": "DT_INT32", "tensorShape": {}}}}}, {"name": "StatefulPartitionedCall/sequential/residual_stack_._0._._2/conv1d_6/conv1d/ExpandDims_1", "op": "Const", "attr": {"value": {"tensor": {"dtype": "DT_FLOAT", "tensorShape": {"dim": [{"size": "1"}, {"size": "1"}, {"size": "192"}, {"size": "192"}]}}}, "dtype": {"type": "DT_FLOAT"}}}, {"name": "unknown_18", "op": "Const", "attr": {"dtype": {"type": "DT_FLOAT"}, "value": {"tensor": {"dtype": "DT_FLOAT", "tensorShape": {"dim": [{"size": "192"}]}}}}}, {"name": "StatefulPartitionedCall/sequential/residual_stack_._0._._3/tf_reflection_pad1d_3/MirrorPad/paddings", "op": "Const", "attr": {"dtype": {"type": "DT_INT32"}, "value": {"tensor": {"dtype": "DT_INT32", "tensorShape": {"dim": [{"size": "3"}, {"size": "2"}]}}}}}, {"name": "StatefulPartitionedCall/sequential/residual_stack_._0._._3/conv1d_7/conv1d/strided_slice/stack", "op": "Const", "attr": {"value": {"tensor": {"dtype": "DT_INT32", "tensorShape": {"dim": [{"size": "1"}]}}}, "dtype": {"type": "DT_INT32"}}}, {"name": "StatefulPartitionedCall/sequential/residual_stack_._0._._3/conv1d_7/conv1d/strided_slice/stack_1", "op": "Const", "attr": {"value": {"tensor": {"dtype": "DT_INT32", "tensorShape": {"dim": [{"size": "1"}]}}}, "dtype": {"type": "DT_INT32"}}}, {"name": "StatefulPartitionedCall/sequential/residual_stack_._0._._3/conv1d_7/conv1d/strided_slice/stack_2", "op": "Const", "attr": {"value": {"tensor": {"dtype": "DT_INT32", "tensorShape": {"dim": [{"size": "1"}]}}}, "dtype": {"type": "DT_INT32"}}}, {"name": "StatefulPartitionedCall/sequential/residual_stack_._0._._3/conv1d_7/conv1d/dilation_rate", "op": "Const", "attr": {"value": {"tensor": {"dtype": "DT_INT32", "tensorShape": {"dim": [{"size": "1"}]}}}, "dtype": {"type": "DT_INT32"}}}, {"name": "StatefulPartitionedCall/sequential/residual_stack_._0._._3/conv1d_7/conv1d/required_space_to_batch_paddings/strided_slice_4/stack", "op": "Const", "attr": {"value": {"tensor": {"dtype": "DT_INT32", "tensorShape": {"dim": [{"size": "1"}]}}}, "dtype": {"type": "DT_INT32"}}}, {"name": "StatefulPartitionedCall/sequential/residual_stack_._0._._3/conv1d_7/conv1d/required_space_to_batch_paddings/strided_slice_4/stack_1", "op": "Const", "attr": {"value": {"tensor": {"dtype": "DT_INT32", "tensorShape": {"dim": [{"size": "1"}]}}}, "dtype": {"type": "DT_INT32"}}}, {"name": "StatefulPartitionedCall/sequential/residual_stack_._0._._3/conv1d_7/conv1d/required_space_to_batch_paddings/strided_slice_4/stack_2", "op": "Const", "attr": {"value": {"tensor": {"dtype": "DT_INT32", "tensorShape": {"dim": [{"size": "1"}]}}}, "dtype": {"type": "DT_INT32"}}}, {"name": "unknown_22", "op": "Const", "attr": {"dtype": {"type": "DT_FLOAT"}, "value": {"tensor": {"dtype": "DT_FLOAT", "tensorShape": {"dim": [{"size": "192"}]}}}}}, {"name": "StatefulPartitionedCall/sequential/residual_stack_._0._._3/conv1d_8/conv1d/ExpandDims/dim", "op": "Const", "attr": {"dtype": {"type": "DT_INT32"}, "value": {"tensor": {"dtype": "DT_INT32", "tensorShape": {}}}}}, {"name": "StatefulPartitionedCall/sequential/residual_stack_._0._._3/conv1d_8/conv1d/ExpandDims_1", "op": "Const", "attr": {"dtype": {"type": "DT_FLOAT"}, "value": {"tensor": {"dtype": "DT_FLOAT", "tensorShape": {"dim": [{"size": "1"}, {"size": "1"}, {"size": "192"}, {"size": "192"}]}}}}}, {"name": "unknown_24", "op": "Const", "attr": {"dtype": {"type": "DT_FLOAT"}, "value": {"tensor": {"dtype": "DT_FLOAT", "tensorShape": {"dim": [{"size": "192"}]}}}}}, {"name": "StatefulPartitionedCall/sequential/conv_transpose_._1/ExpandDims/dim", "op": "Const", "attr": {"value": {"tensor": {"dtype": "DT_INT32", "tensorShape": {}}}, "dtype": {"type": "DT_INT32"}}}, {"name": "unknown_28", "op": "Const", "attr": {"dtype": {"type": "DT_FLOAT"}, "value": {"tensor": {"dtype": "DT_FLOAT", "tensorShape": {"dim": [{"size": "96"}]}}}}}, {"name": "StatefulPartitionedCall/sequential/residual_stack_._1._._0/tf_reflection_pad1d_4/MirrorPad/paddings", "op": "Const", "attr": {"dtype": {"type": "DT_INT32"}, "value": {"tensor": {"dtype": "DT_INT32", "tensorShape": {"dim": [{"size": "3"}, {"size": "2"}]}}}}}, {"name": "StatefulPartitionedCall/sequential/residual_stack_._1._._0/conv1d_9/conv1d/ExpandDims/dim", "op": "Const", "attr": {"dtype": {"type": "DT_INT32"}, "value": {"tensor": {"dtype": "DT_INT32", "tensorShape": {}}}}}, {"name": "StatefulPartitionedCall/sequential/residual_stack_._1._._0/conv1d_9/conv1d/ExpandDims_1", "op": "Const", "attr": {"value": {"tensor": {"dtype": "DT_FLOAT", "tensorShape": {"dim": [{"size": "1"}, {"size": "3"}, {"size": "96"}, {"size": "96"}]}}}, "dtype": {"type": "DT_FLOAT"}}}, {"name": "unknown_30", "op": "Const", "attr": {"dtype": {"type": "DT_FLOAT"}, "value": {"tensor": {"dtype": "DT_FLOAT", "tensorShape": {"dim": [{"size": "96"}]}}}}}, {"name": "StatefulPartitionedCall/sequential/residual_stack_._1._._0/conv1d_10/conv1d/ExpandDims/dim", "op": "Const", "attr": {"dtype": {"type": "DT_INT32"}, "value": {"tensor": {"dtype": "DT_INT32", "tensorShape": {}}}}}, {"name": "StatefulPartitionedCall/sequential/residual_stack_._1._._0/conv1d_10/conv1d/ExpandDims_1", "op": "Const", "attr": {"value": {"tensor": {"dtype": "DT_FLOAT", "tensorShape": {"dim": [{"size": "1"}, {"size": "1"}, {"size": "96"}, {"size": "96"}]}}}, "dtype": {"type": "DT_FLOAT"}}}, {"name": "unknown_32", "op": "Const", "attr": {"value": {"tensor": {"dtype": "DT_FLOAT", "tensorShape": {"dim": [{"size": "96"}]}}}, "dtype": {"type": "DT_FLOAT"}}}, {"name": "StatefulPartitionedCall/sequential/residual_stack_._1._._1/tf_reflection_pad1d_5/MirrorPad/paddings", "op": "Const", "attr": {"dtype": {"type": "DT_INT32"}, "value": {"tensor": {"dtype": "DT_INT32", "tensorShape": {"dim": [{"size": "3"}, {"size": "2"}]}}}}}, {"name": "StatefulPartitionedCall/sequential/residual_stack_._1._._1/conv1d_11/conv1d/strided_slice/stack", "op": "Const", "attr": {"dtype": {"type": "DT_INT32"}, "value": {"tensor": {"dtype": "DT_INT32", "tensorShape": {"dim": [{"size": "1"}]}}}}}, {"name": "StatefulPartitionedCall/sequential/residual_stack_._1._._1/conv1d_11/conv1d/strided_slice/stack_1", "op": "Const", "attr": {"value": {"tensor": {"dtype": "DT_INT32", "tensorShape": {"dim": [{"size": "1"}]}}}, "dtype": {"type": "DT_INT32"}}}, {"name": "StatefulPartitionedCall/sequential/residual_stack_._1._._1/conv1d_11/conv1d/strided_slice/stack_2", "op": "Const", "attr": {"value": {"tensor": {"dtype": "DT_INT32", "tensorShape": {"dim": [{"size": "1"}]}}}, "dtype": {"type": "DT_INT32"}}}, {"name": "StatefulPartitionedCall/sequential/residual_stack_._1._._1/conv1d_11/conv1d/dilation_rate", "op": "Const", "attr": {"value": {"tensor": {"dtype": "DT_INT32", "tensorShape": {"dim": [{"size": "1"}]}}}, "dtype": {"type": "DT_INT32"}}}, {"name": "StatefulPartitionedCall/sequential/residual_stack_._1._._1/conv1d_11/conv1d/required_space_to_batch_paddings/strided_slice_4/stack", "op": "Const", "attr": {"value": {"tensor": {"dtype": "DT_INT32", "tensorShape": {"dim": [{"size": "1"}]}}}, "dtype": {"type": "DT_INT32"}}}, {"name": "StatefulPartitionedCall/sequential/residual_stack_._1._._1/conv1d_11/conv1d/required_space_to_batch_paddings/strided_slice_4/stack_1", "op": "Const", "attr": {"value": {"tensor": {"dtype": "DT_INT32", "tensorShape": {"dim": [{"size": "1"}]}}}, "dtype": {"type": "DT_INT32"}}}, {"name": "StatefulPartitionedCall/sequential/residual_stack_._1._._1/conv1d_11/conv1d/required_space_to_batch_paddings/strided_slice_4/stack_2", "op": "Const", "attr": {"dtype": {"type": "DT_INT32"}, "value": {"tensor": {"dtype": "DT_INT32", "tensorShape": {"dim": [{"size": "1"}]}}}}}, {"name": "unknown_36", "op": "Const", "attr": {"value": {"tensor": {"dtype": "DT_FLOAT", "tensorShape": {"dim": [{"size": "96"}]}}}, "dtype": {"type": "DT_FLOAT"}}}, {"name": "StatefulPartitionedCall/sequential/residual_stack_._1._._1/conv1d_12/conv1d/ExpandDims/dim", "op": "Const", "attr": {"dtype": {"type": "DT_INT32"}, "value": {"tensor": {"dtype": "DT_INT32", "tensorShape": {}}}}}, {"name": "StatefulPartitionedCall/sequential/residual_stack_._1._._1/conv1d_12/conv1d/ExpandDims_1", "op": "Const", "attr": {"dtype": {"type": "DT_FLOAT"}, "value": {"tensor": {"dtype": "DT_FLOAT", "tensorShape": {"dim": [{"size": "1"}, {"size": "1"}, {"size": "96"}, {"size": "96"}]}}}}}, {"name": "unknown_38", "op": "Const", "attr": {"value": {"tensor": {"dtype": "DT_FLOAT", "tensorShape": {"dim": [{"size": "96"}]}}}, "dtype": {"type": "DT_FLOAT"}}}, {"name": "StatefulPartitionedCall/sequential/residual_stack_._1._._2/tf_reflection_pad1d_6/MirrorPad/paddings", "op": "Const", "attr": {"value": {"tensor": {"dtype": "DT_INT32", "tensorShape": {"dim": [{"size": "3"}, {"size": "2"}]}}}, "dtype": {"type": "DT_INT32"}}}, {"name": "StatefulPartitionedCall/sequential/residual_stack_._1._._2/conv1d_13/conv1d/strided_slice/stack", "op": "Const", "attr": {"dtype": {"type": "DT_INT32"}, "value": {"tensor": {"dtype": "DT_INT32", "tensorShape": {"dim": [{"size": "1"}]}}}}}, {"name": "StatefulPartitionedCall/sequential/residual_stack_._1._._2/conv1d_13/conv1d/strided_slice/stack_1", "op": "Const", "attr": {"value": {"tensor": {"dtype": "DT_INT32", "tensorShape": {"dim": [{"size": "1"}]}}}, "dtype": {"type": "DT_INT32"}}}, {"name": "StatefulPartitionedCall/sequential/residual_stack_._1._._2/conv1d_13/conv1d/strided_slice/stack_2", "op": "Const", "attr": {"dtype": {"type": "DT_INT32"}, "value": {"tensor": {"dtype": "DT_INT32", "tensorShape": {"dim": [{"size": "1"}]}}}}}, {"name": "StatefulPartitionedCall/sequential/residual_stack_._1._._2/conv1d_13/conv1d/dilation_rate", "op": "Const", "attr": {"value": {"tensor": {"dtype": "DT_INT32", "tensorShape": {"dim": [{"size": "1"}]}}}, "dtype": {"type": "DT_INT32"}}}, {"name": "StatefulPartitionedCall/sequential/residual_stack_._1._._2/conv1d_13/conv1d/required_space_to_batch_paddings/strided_slice_4/stack", "op": "Const", "attr": {"value": {"tensor": {"dtype": "DT_INT32", "tensorShape": {"dim": [{"size": "1"}]}}}, "dtype": {"type": "DT_INT32"}}}, {"name": "StatefulPartitionedCall/sequential/residual_stack_._1._._2/conv1d_13/conv1d/required_space_to_batch_paddings/strided_slice_4/stack_1", "op": "Const", "attr": {"dtype": {"type": "DT_INT32"}, "value": {"tensor": {"dtype": "DT_INT32", "tensorShape": {"dim": [{"size": "1"}]}}}}}, {"name": "StatefulPartitionedCall/sequential/residual_stack_._1._._2/conv1d_13/conv1d/required_space_to_batch_paddings/strided_slice_4/stack_2", "op": "Const", "attr": {"value": {"tensor": {"dtype": "DT_INT32", "tensorShape": {"dim": [{"size": "1"}]}}}, "dtype": {"type": "DT_INT32"}}}, {"name": "unknown_42", "op": "Const", "attr": {"value": {"tensor": {"dtype": "DT_FLOAT", "tensorShape": {"dim": [{"size": "96"}]}}}, "dtype": {"type": "DT_FLOAT"}}}, {"name": "StatefulPartitionedCall/sequential/residual_stack_._1._._2/conv1d_14/conv1d/ExpandDims/dim", "op": "Const", "attr": {"value": {"tensor": {"dtype": "DT_INT32", "tensorShape": {}}}, "dtype": {"type": "DT_INT32"}}}, {"name": "StatefulPartitionedCall/sequential/residual_stack_._1._._2/conv1d_14/conv1d/ExpandDims_1", "op": "Const", "attr": {"dtype": {"type": "DT_FLOAT"}, "value": {"tensor": {"dtype": "DT_FLOAT", "tensorShape": {"dim": [{"size": "1"}, {"size": "1"}, {"size": "96"}, {"size": "96"}]}}}}}, {"name": "unknown_44", "op": "Const", "attr": {"dtype": {"type": "DT_FLOAT"}, "value": {"tensor": {"dtype": "DT_FLOAT", "tensorShape": {"dim": [{"size": "96"}]}}}}}, {"name": "StatefulPartitionedCall/sequential/residual_stack_._1._._3/tf_reflection_pad1d_7/MirrorPad/paddings", "op": "Const", "attr": {"dtype": {"type": "DT_INT32"}, "value": {"tensor": {"dtype": "DT_INT32", "tensorShape": {"dim": [{"size": "3"}, {"size": "2"}]}}}}}, {"name": "StatefulPartitionedCall/sequential/residual_stack_._1._._3/conv1d_15/conv1d/strided_slice/stack", "op": "Const", "attr": {"value": {"tensor": {"dtype": "DT_INT32", "tensorShape": {"dim": [{"size": "1"}]}}}, "dtype": {"type": "DT_INT32"}}}, {"name": "StatefulPartitionedCall/sequential/residual_stack_._1._._3/conv1d_15/conv1d/strided_slice/stack_1", "op": "Const", "attr": {"dtype": {"type": "DT_INT32"}, "value": {"tensor": {"dtype": "DT_INT32", "tensorShape": {"dim": [{"size": "1"}]}}}}}, {"name": "StatefulPartitionedCall/sequential/residual_stack_._1._._3/conv1d_15/conv1d/strided_slice/stack_2", "op": "Const", "attr": {"dtype": {"type": "DT_INT32"}, "value": {"tensor": {"dtype": "DT_INT32", "tensorShape": {"dim": [{"size": "1"}]}}}}}, {"name": "StatefulPartitionedCall/sequential/residual_stack_._1._._3/conv1d_15/conv1d/dilation_rate", "op": "Const", "attr": {"dtype": {"type": "DT_INT32"}, "value": {"tensor": {"dtype": "DT_INT32", "tensorShape": {"dim": [{"size": "1"}]}}}}}, {"name": "StatefulPartitionedCall/sequential/residual_stack_._1._._3/conv1d_15/conv1d/required_space_to_batch_paddings/strided_slice_4/stack", "op": "Const", "attr": {"value": {"tensor": {"dtype": "DT_INT32", "tensorShape": {"dim": [{"size": "1"}]}}}, "dtype": {"type": "DT_INT32"}}}, {"name": "StatefulPartitionedCall/sequential/residual_stack_._1._._3/conv1d_15/conv1d/required_space_to_batch_paddings/strided_slice_4/stack_1", "op": "Const", "attr": {"value": {"tensor": {"dtype": "DT_INT32", "tensorShape": {"dim": [{"size": "1"}]}}}, "dtype": {"type": "DT_INT32"}}}, {"name": "StatefulPartitionedCall/sequential/residual_stack_._1._._3/conv1d_15/conv1d/required_space_to_batch_paddings/strided_slice_4/stack_2", "op": "Const", "attr": {"dtype": {"type": "DT_INT32"}, "value": {"tensor": {"dtype": "DT_INT32", "tensorShape": {"dim": [{"size": "1"}]}}}}}, {"name": "unknown_48", "op": "Const", "attr": {"dtype": {"type": "DT_FLOAT"}, "value": {"tensor": {"dtype": "DT_FLOAT", "tensorShape": {"dim": [{"size": "96"}]}}}}}, {"name": "StatefulPartitionedCall/sequential/residual_stack_._1._._3/conv1d_16/conv1d/ExpandDims/dim", "op": "Const", "attr": {"value": {"tensor": {"dtype": "DT_INT32", "tensorShape": {}}}, "dtype": {"type": "DT_INT32"}}}, {"name": "StatefulPartitionedCall/sequential/residual_stack_._1._._3/conv1d_16/conv1d/ExpandDims_1", "op": "Const", "attr": {"value": {"tensor": {"dtype": "DT_FLOAT", "tensorShape": {"dim": [{"size": "1"}, {"size": "1"}, {"size": "96"}, {"size": "96"}]}}}, "dtype": {"type": "DT_FLOAT"}}}, {"name": "unknown_50", "op": "Const", "attr": {"dtype": {"type": "DT_FLOAT"}, "value": {"tensor": {"dtype": "DT_FLOAT", "tensorShape": {"dim": [{"size": "96"}]}}}}}, {"name": "StatefulPartitionedCall/sequential/conv_transpose_._2/ExpandDims/dim", "op": "Const", "attr": {"value": {"tensor": {"dtype": "DT_INT32", "tensorShape": {}}}, "dtype": {"type": "DT_INT32"}}}, {"name": "unknown_54", "op": "Const", "attr": {"dtype": {"type": "DT_FLOAT"}, "value": {"tensor": {"dtype": "DT_FLOAT", "tensorShape": {"dim": [{"size": "48"}]}}}}}, {"name": "StatefulPartitionedCall/sequential/residual_stack_._2._._0/tf_reflection_pad1d_8/MirrorPad/paddings", "op": "Const", "attr": {"dtype": {"type": "DT_INT32"}, "value": {"tensor": {"dtype": "DT_INT32", "tensorShape": {"dim": [{"size": "3"}, {"size": "2"}]}}}}}, {"name": "StatefulPartitionedCall/sequential/residual_stack_._2._._0/conv1d_17/conv1d/ExpandDims/dim", "op": "Const", "attr": {"dtype": {"type": "DT_INT32"}, "value": {"tensor": {"dtype": "DT_INT32", "tensorShape": {}}}}}, {"name": "StatefulPartitionedCall/sequential/residual_stack_._2._._0/conv1d_17/conv1d/ExpandDims_1", "op": "Const", "attr": {"dtype": {"type": "DT_FLOAT"}, "value": {"tensor": {"dtype": "DT_FLOAT", "tensorShape": {"dim": [{"size": "1"}, {"size": "3"}, {"size": "48"}, {"size": "48"}]}}}}}, {"name": "unknown_56", "op": "Const", "attr": {"value": {"tensor": {"dtype": "DT_FLOAT", "tensorShape": {"dim": [{"size": "48"}]}}}, "dtype": {"type": "DT_FLOAT"}}}, {"name": "StatefulPartitionedCall/sequential/residual_stack_._2._._0/conv1d_18/conv1d/ExpandDims/dim", "op": "Const", "attr": {"dtype": {"type": "DT_INT32"}, "value": {"tensor": {"dtype": "DT_INT32", "tensorShape": {}}}}}, {"name": "StatefulPartitionedCall/sequential/residual_stack_._2._._0/conv1d_18/conv1d/ExpandDims_1", "op": "Const", "attr": {"value": {"tensor": {"dtype": "DT_FLOAT", "tensorShape": {"dim": [{"size": "1"}, {"size": "1"}, {"size": "48"}, {"size": "48"}]}}}, "dtype": {"type": "DT_FLOAT"}}}, {"name": "unknown_58", "op": "Const", "attr": {"value": {"tensor": {"dtype": "DT_FLOAT", "tensorShape": {"dim": [{"size": "48"}]}}}, "dtype": {"type": "DT_FLOAT"}}}, {"name": "StatefulPartitionedCall/sequential/residual_stack_._2._._1/tf_reflection_pad1d_9/MirrorPad/paddings", "op": "Const", "attr": {"value": {"tensor": {"dtype": "DT_INT32", "tensorShape": {"dim": [{"size": "3"}, {"size": "2"}]}}}, "dtype": {"type": "DT_INT32"}}}, {"name": "StatefulPartitionedCall/sequential/residual_stack_._2._._1/conv1d_19/conv1d/strided_slice/stack", "op": "Const", "attr": {"dtype": {"type": "DT_INT32"}, "value": {"tensor": {"dtype": "DT_INT32", "tensorShape": {"dim": [{"size": "1"}]}}}}}, {"name": "StatefulPartitionedCall/sequential/residual_stack_._2._._1/conv1d_19/conv1d/strided_slice/stack_1", "op": "Const", "attr": {"value": {"tensor": {"dtype": "DT_INT32", "tensorShape": {"dim": [{"size": "1"}]}}}, "dtype": {"type": "DT_INT32"}}}, {"name": "StatefulPartitionedCall/sequential/residual_stack_._2._._1/conv1d_19/conv1d/strided_slice/stack_2", "op": "Const", "attr": {"value": {"tensor": {"dtype": "DT_INT32", "tensorShape": {"dim": [{"size": "1"}]}}}, "dtype": {"type": "DT_INT32"}}}, {"name": "StatefulPartitionedCall/sequential/residual_stack_._2._._1/conv1d_19/conv1d/dilation_rate", "op": "Const", "attr": {"dtype": {"type": "DT_INT32"}, "value": {"tensor": {"dtype": "DT_INT32", "tensorShape": {"dim": [{"size": "1"}]}}}}}, {"name": "StatefulPartitionedCall/sequential/residual_stack_._2._._1/conv1d_19/conv1d/required_space_to_batch_paddings/strided_slice_4/stack", "op": "Const", "attr": {"dtype": {"type": "DT_INT32"}, "value": {"tensor": {"dtype": "DT_INT32", "tensorShape": {"dim": [{"size": "1"}]}}}}}, {"name": "StatefulPartitionedCall/sequential/residual_stack_._2._._1/conv1d_19/conv1d/required_space_to_batch_paddings/strided_slice_4/stack_1", "op": "Const", "attr": {"dtype": {"type": "DT_INT32"}, "value": {"tensor": {"dtype": "DT_INT32", "tensorShape": {"dim": [{"size": "1"}]}}}}}, {"name": "StatefulPartitionedCall/sequential/residual_stack_._2._._1/conv1d_19/conv1d/required_space_to_batch_paddings/strided_slice_4/stack_2", "op": "Const", "attr": {"value": {"tensor": {"dtype": "DT_INT32", "tensorShape": {"dim": [{"size": "1"}]}}}, "dtype": {"type": "DT_INT32"}}}, {"name": "unknown_62", "op": "Const", "attr": {"dtype": {"type": "DT_FLOAT"}, "value": {"tensor": {"dtype": "DT_FLOAT", "tensorShape": {"dim": [{"size": "48"}]}}}}}, {"name": "StatefulPartitionedCall/sequential/residual_stack_._2._._1/conv1d_20/conv1d/ExpandDims/dim", "op": "Const", "attr": {"dtype": {"type": "DT_INT32"}, "value": {"tensor": {"dtype": "DT_INT32", "tensorShape": {}}}}}, {"name": "StatefulPartitionedCall/sequential/residual_stack_._2._._1/conv1d_20/conv1d/ExpandDims_1", "op": "Const", "attr": {"value": {"tensor": {"dtype": "DT_FLOAT", "tensorShape": {"dim": [{"size": "1"}, {"size": "1"}, {"size": "48"}, {"size": "48"}]}}}, "dtype": {"type": "DT_FLOAT"}}}, {"name": "unknown_64", "op": "Const", "attr": {"dtype": {"type": "DT_FLOAT"}, "value": {"tensor": {"dtype": "DT_FLOAT", "tensorShape": {"dim": [{"size": "48"}]}}}}}, {"name": "StatefulPartitionedCall/sequential/residual_stack_._2._._2/tf_reflection_pad1d_10/MirrorPad/paddings", "op": "Const", "attr": {"dtype": {"type": "DT_INT32"}, "value": {"tensor": {"dtype": "DT_INT32", "tensorShape": {"dim": [{"size": "3"}, {"size": "2"}]}}}}}, {"name": "StatefulPartitionedCall/sequential/residual_stack_._2._._2/conv1d_21/conv1d/strided_slice/stack", "op": "Const", "attr": {"value": {"tensor": {"dtype": "DT_INT32", "tensorShape": {"dim": [{"size": "1"}]}}}, "dtype": {"type": "DT_INT32"}}}, {"name": "StatefulPartitionedCall/sequential/residual_stack_._2._._2/conv1d_21/conv1d/strided_slice/stack_1", "op": "Const", "attr": {"value": {"tensor": {"dtype": "DT_INT32", "tensorShape": {"dim": [{"size": "1"}]}}}, "dtype": {"type": "DT_INT32"}}}, {"name": "StatefulPartitionedCall/sequential/residual_stack_._2._._2/conv1d_21/conv1d/strided_slice/stack_2", "op": "Const", "attr": {"dtype": {"type": "DT_INT32"}, "value": {"tensor": {"dtype": "DT_INT32", "tensorShape": {"dim": [{"size": "1"}]}}}}}, {"name": "StatefulPartitionedCall/sequential/residual_stack_._2._._2/conv1d_21/conv1d/dilation_rate", "op": "Const", "attr": {"dtype": {"type": "DT_INT32"}, "value": {"tensor": {"dtype": "DT_INT32", "tensorShape": {"dim": [{"size": "1"}]}}}}}, {"name": "StatefulPartitionedCall/sequential/residual_stack_._2._._2/conv1d_21/conv1d/required_space_to_batch_paddings/strided_slice_4/stack", "op": "Const", "attr": {"value": {"tensor": {"dtype": "DT_INT32", "tensorShape": {"dim": [{"size": "1"}]}}}, "dtype": {"type": "DT_INT32"}}}, {"name": "StatefulPartitionedCall/sequential/residual_stack_._2._._2/conv1d_21/conv1d/required_space_to_batch_paddings/strided_slice_4/stack_1", "op": "Const", "attr": {"dtype": {"type": "DT_INT32"}, "value": {"tensor": {"dtype": "DT_INT32", "tensorShape": {"dim": [{"size": "1"}]}}}}}, {"name": "StatefulPartitionedCall/sequential/residual_stack_._2._._2/conv1d_21/conv1d/required_space_to_batch_paddings/strided_slice_4/stack_2", "op": "Const", "attr": {"value": {"tensor": {"dtype": "DT_INT32", "tensorShape": {"dim": [{"size": "1"}]}}}, "dtype": {"type": "DT_INT32"}}}, {"name": "unknown_68", "op": "Const", "attr": {"dtype": {"type": "DT_FLOAT"}, "value": {"tensor": {"dtype": "DT_FLOAT", "tensorShape": {"dim": [{"size": "48"}]}}}}}, {"name": "StatefulPartitionedCall/sequential/residual_stack_._2._._2/conv1d_22/conv1d/ExpandDims/dim", "op": "Const", "attr": {"value": {"tensor": {"dtype": "DT_INT32", "tensorShape": {}}}, "dtype": {"type": "DT_INT32"}}}, {"name": "StatefulPartitionedCall/sequential/residual_stack_._2._._2/conv1d_22/conv1d/ExpandDims_1", "op": "Const", "attr": {"value": {"tensor": {"dtype": "DT_FLOAT", "tensorShape": {"dim": [{"size": "1"}, {"size": "1"}, {"size": "48"}, {"size": "48"}]}}}, "dtype": {"type": "DT_FLOAT"}}}, {"name": "unknown_70", "op": "Const", "attr": {"dtype": {"type": "DT_FLOAT"}, "value": {"tensor": {"dtype": "DT_FLOAT", "tensorShape": {"dim": [{"size": "48"}]}}}}}, {"name": "StatefulPartitionedCall/sequential/residual_stack_._2._._3/tf_reflection_pad1d_11/MirrorPad/paddings", "op": "Const", "attr": {"value": {"tensor": {"dtype": "DT_INT32", "tensorShape": {"dim": [{"size": "3"}, {"size": "2"}]}}}, "dtype": {"type": "DT_INT32"}}}, {"name": "StatefulPartitionedCall/sequential/residual_stack_._2._._3/conv1d_23/conv1d/strided_slice/stack", "op": "Const", "attr": {"value": {"tensor": {"dtype": "DT_INT32", "tensorShape": {"dim": [{"size": "1"}]}}}, "dtype": {"type": "DT_INT32"}}}, {"name": "StatefulPartitionedCall/sequential/residual_stack_._2._._3/conv1d_23/conv1d/strided_slice/stack_1", "op": "Const", "attr": {"value": {"tensor": {"dtype": "DT_INT32", "tensorShape": {"dim": [{"size": "1"}]}}}, "dtype": {"type": "DT_INT32"}}}, {"name": "StatefulPartitionedCall/sequential/residual_stack_._2._._3/conv1d_23/conv1d/strided_slice/stack_2", "op": "Const", "attr": {"dtype": {"type": "DT_INT32"}, "value": {"tensor": {"dtype": "DT_INT32", "tensorShape": {"dim": [{"size": "1"}]}}}}}, {"name": "StatefulPartitionedCall/sequential/residual_stack_._2._._3/conv1d_23/conv1d/dilation_rate", "op": "Const", "attr": {"dtype": {"type": "DT_INT32"}, "value": {"tensor": {"dtype": "DT_INT32", "tensorShape": {"dim": [{"size": "1"}]}}}}}, {"name": "StatefulPartitionedCall/sequential/residual_stack_._2._._3/conv1d_23/conv1d/required_space_to_batch_paddings/strided_slice_4/stack", "op": "Const", "attr": {"dtype": {"type": "DT_INT32"}, "value": {"tensor": {"dtype": "DT_INT32", "tensorShape": {"dim": [{"size": "1"}]}}}}}, {"name": "StatefulPartitionedCall/sequential/residual_stack_._2._._3/conv1d_23/conv1d/required_space_to_batch_paddings/strided_slice_4/stack_1", "op": "Const", "attr": {"value": {"tensor": {"dtype": "DT_INT32", "tensorShape": {"dim": [{"size": "1"}]}}}, "dtype": {"type": "DT_INT32"}}}, {"name": "StatefulPartitionedCall/sequential/residual_stack_._2._._3/conv1d_23/conv1d/required_space_to_batch_paddings/strided_slice_4/stack_2", "op": "Const", "attr": {"value": {"tensor": {"dtype": "DT_INT32", "tensorShape": {"dim": [{"size": "1"}]}}}, "dtype": {"type": "DT_INT32"}}}, {"name": "unknown_74", "op": "Const", "attr": {"dtype": {"type": "DT_FLOAT"}, "value": {"tensor": {"dtype": "DT_FLOAT", "tensorShape": {"dim": [{"size": "48"}]}}}}}, {"name": "StatefulPartitionedCall/sequential/residual_stack_._2._._3/conv1d_24/conv1d/ExpandDims/dim", "op": "Const", "attr": {"dtype": {"type": "DT_INT32"}, "value": {"tensor": {"dtype": "DT_INT32", "tensorShape": {}}}}}, {"name": "StatefulPartitionedCall/sequential/residual_stack_._2._._3/conv1d_24/conv1d/ExpandDims_1", "op": "Const", "attr": {"dtype": {"type": "DT_FLOAT"}, "value": {"tensor": {"dtype": "DT_FLOAT", "tensorShape": {"dim": [{"size": "1"}, {"size": "1"}, {"size": "48"}, {"size": "48"}]}}}}}, {"name": "unknown_76", "op": "Const", "attr": {"value": {"tensor": {"dtype": "DT_FLOAT", "tensorShape": {"dim": [{"size": "48"}]}}}, "dtype": {"type": "DT_FLOAT"}}}, {"name": "StatefulPartitionedCall/sequential/last_reflect_padding/MirrorPad/paddings", "op": "Const", "attr": {"dtype": {"type": "DT_INT32"}, "value": {"tensor": {"dtype": "DT_INT32", "tensorShape": {"dim": [{"size": "3"}, {"size": "2"}]}}}}}, {"name": "StatefulPartitionedCall/sequential/conv1d_25/conv1d/ExpandDims/dim", "op": "Const", "attr": {"value": {"tensor": {"dtype": "DT_INT32", "tensorShape": {}}}, "dtype": {"type": "DT_INT32"}}}, {"name": "StatefulPartitionedCall/sequential/conv1d_25/conv1d/ExpandDims_1", "op": "Const", "attr": {"dtype": {"type": "DT_FLOAT"}, "value": {"tensor": {"dtype": "DT_FLOAT", "tensorShape": {"dim": [{"size": "1"}, {"size": "7"}, {"size": "48"}, {"size": "4"}]}}}}}, {"name": "unknown_80", "op": "Const", "attr": {"dtype": {"type": "DT_FLOAT"}, "value": {"tensor": {"dtype": "DT_FLOAT", "tensorShape": {"dim": [{"size": "4"}]}}}}}, {"name": "StatefulPartitionedCall/PartitionedCall/conv1d_transpose/ExpandDims/dim", "op": "Const", "attr": {"dtype": {"type": "DT_INT32"}, "value": {"tensor": {"dtype": "DT_INT32", "tensorShape": {}}}}}, {"name": "StatefulPartitionedCall/PartitionedCall/Pad/paddings", "op": "Const", "attr": {"value": {"tensor": {"dtype": "DT_INT32", "tensorShape": {"dim": [{"size": "3"}, {"size": "2"}]}}}, "dtype": {"type": "DT_INT32"}}}, {"name": "StatefulPartitionedCall/PartitionedCall/conv1d/ExpandDims/dim", "op": "Const", "attr": {"value": {"tensor": {"dtype": "DT_INT32", "tensorShape": {}}}, "dtype": {"type": "DT_INT32"}}}, {"name": "StatefulPartitionedCall/PartitionedCall/conv1d/ExpandDims_1", "op": "Const", "attr": {"value": {"tensor": {"dtype": "DT_FLOAT", "tensorShape": {"dim": [{"size": "1"}, {"size": "63"}, {"size": "4"}, {"size": "1"}]}}}, "dtype": {"type": "DT_FLOAT"}}}, {"name": "mels", "op": "Placeholder", "attr": {"shape": {"shape": {"dim": [{"size": "-1"}, {"size": "-1"}, {"size": "80"}]}}, "dtype": {"type": "DT_FLOAT"}}}, {"name": "StatefulPartitionedCall/sequential/first_reflect_padding/MirrorPad", "op": "MirrorPad", "input": ["mels", "StatefulPartitionedCall/sequential/first_reflect_padding/MirrorPad/paddings"], "attr": {"mode": {"s": "UkVGTEVDVA=="}, "Tpaddings": {"type": "DT_INT32"}, "T": {"type": "DT_FLOAT"}}}, {"name": "StatefulPartitionedCall/sequential/conv1d/conv1d/ExpandDims", "op": "ExpandDims", "input": ["StatefulPartitionedCall/sequential/first_reflect_padding/MirrorPad", "StatefulPartitionedCall/sequential/conv1d/conv1d/ExpandDims/dim"], "attr": {"Tdim": {"type": "DT_INT32"}, "T": {"type": "DT_FLOAT"}}}, {"name": "StatefulPartitionedCall/sequential/conv1d/conv1d", "op": "_FusedConv2D", "input": ["StatefulPartitionedCall/sequential/conv1d/conv1d/ExpandDims", "StatefulPartitionedCall/sequential/conv1d/conv1d/ExpandDims_1", "unknown_0"], "device": "/device:CPU:0", "attr": {"use_cudnn_on_gpu": {"b": true}, "dilations": {"list": {"i": ["1", "1", "1", "1"]}}, "strides": {"list": {"i": ["1", "1", "1", "1"]}}, "num_args": {"i": "1"}, "fused_ops": {"list": {"s": ["Qmlhc0FkZA=="]}}, "explicit_paddings": {"list": {}}, "epsilon": {"f": 0.0}, "padding": {"s": "VkFMSUQ="}, "data_format": {"s": "TkhXQw=="}, "T": {"type": "DT_FLOAT"}}}, {"name": "StatefulPartitionedCall/sequential/conv1d/BiasAdd", "op": "Squeeze", "input": ["StatefulPartitionedCall/sequential/conv1d/conv1d"], "attr": {"T": {"type": "DT_FLOAT"}, "squeeze_dims": {"list": {"i": ["-3"]}}}}, {"name": "StatefulPartitionedCall/sequential/leaky_re_lu/LeakyRelu", "op": "LeakyRelu", "input": ["StatefulPartitionedCall/sequential/conv1d/BiasAdd"], "attr": {"T": {"type": "DT_FLOAT"}, "alpha": {"f": 0.2}}}, {"name": "StatefulPartitionedCall/sequential/conv_transpose_._0/ExpandDims", "op": "ExpandDims", "input": ["StatefulPartitionedCall/sequential/leaky_re_lu/LeakyRelu", "StatefulPartitionedCall/sequential/conv_transpose_._0/ExpandDims/dim"], "attr": {"T": {"type": "DT_FLOAT"}, "Tdim": {"type": "DT_INT32"}}}, {"name": "StatefulPartitionedCall/sequential/conv_transpose_._0/conv2d_transpose/Shape", "op": "Shape", "input": ["StatefulPartitionedCall/sequential/conv_transpose_._0/ExpandDims"], "attr": {"out_type": {"type": "DT_INT32"}, "T": {"type": "DT_FLOAT"}}}, {"name": "StatefulPartitionedCall/sequential/conv_transpose_._0/conv2d_transpose/strided_slice", "op": "StridedSlice", "input": ["StatefulPartitionedCall/sequential/conv_transpose_._0/conv2d_transpose/Shape", "StatefulPartitionedCall/sequential/conv_transpose_._0/conv2d_transpose/strided_slice/stack", "StatefulPartitionedCall/sequential/conv_transpose_._0/conv2d_transpose/strided_slice/stack_1", "StatefulPartitionedCall/sequential/conv_transpose_._0/conv2d_transpose/strided_slice/stack_2"], "attr": {"end_mask": {"i": "0"}, "begin_mask": {"i": "0"}, "Index": {"type": "DT_INT32"}, "shrink_axis_mask": {"i": "1"}, "new_axis_mask": {"i": "0"}, "T": {"type": "DT_INT32"}, "ellipsis_mask": {"i": "0"}}}, {"name": "StatefulPartitionedCall/sequential/conv_transpose_._0/conv2d_transpose/strided_slice_1", "op": "StridedSlice", "input": ["StatefulPartitionedCall/sequential/conv_transpose_._0/conv2d_transpose/Shape", "StatefulPartitionedCall/sequential/conv_transpose_._0/conv2d_transpose/strided_slice_1/stack", "StatefulPartitionedCall/sequential/conv_transpose_._0/conv2d_transpose/strided_slice_1/stack_1", "StatefulPartitionedCall/sequential/conv_transpose_._0/conv2d_transpose/strided_slice_1/stack_2"], "attr": {"end_mask": {"i": "0"}, "begin_mask": {"i": "0"}, "new_axis_mask": {"i": "0"}, "shrink_axis_mask": {"i": "1"}, "T": {"type": "DT_INT32"}, "Index": {"type": "DT_INT32"}, "ellipsis_mask": {"i": "0"}}}, {"name": "StatefulPartitionedCall/sequential/conv_transpose_._0/conv2d_transpose/mul", "op": "Mul", "input": ["StatefulPartitionedCall/sequential/conv_transpose_._0/conv2d_transpose/strided_slice_1", "StatefulPartitionedCall/sequential/conv_transpose_._0/conv2d_transpose/mul/y"], "attr": {"T": {"type": "DT_INT32"}}}, {"name": "StatefulPartitionedCall/sequential/conv_transpose_._0/conv2d_transpose/stack", "op": "Pack", "input": ["StatefulPartitionedCall/sequential/conv_transpose_._0/conv2d_transpose/strided_slice", "StatefulPartitionedCall/sequential/conv_transpose_._0/conv2d_transpose/mul", "StatefulPartitionedCall/sequential/conv_transpose_._0/conv2d_transpose/stack/2", "StatefulPartitionedCall/sequential/conv_transpose_._0/conv2d_transpose/stack/3"], "attr": {"T": {"type": "DT_INT32"}, "axis": {"i": "0"}, "N": {"i": "4"}}}, {"name": "StatefulPartitionedCall/sequential/conv_transpose_._0/conv2d_transpose/conv2d_transpose", "op": "Conv2DBackpropInput", "input": ["StatefulPartitionedCall/sequential/conv_transpose_._0/conv2d_transpose/stack", "unknown_1", "StatefulPartitionedCall/sequential/conv_transpose_._0/ExpandDims"], "attr": {"data_format": {"s": "TkhXQw=="}, "dilations": {"list": {"i": ["1", "1", "1", "1"]}}, "use_cudnn_on_gpu": {"b": true}, "strides": {"list": {"i": ["1", "8", "1", "1"]}}, "T": {"type": "DT_FLOAT"}, "explicit_paddings": {"list": {}}, "padding": {"s": "U0FNRQ=="}}}, {"name": "StatefulPartitionedCall/sequential/conv_transpose_._0/conv2d_transpose/BiasAdd", "op": "BiasAdd", "input": ["StatefulPartitionedCall/sequential/conv_transpose_._0/conv2d_transpose/conv2d_transpose", "unknown_2"], "attr": {"data_format": {"s": "TkhXQw=="}, "T": {"type": "DT_FLOAT"}}}, {"name": "StatefulPartitionedCall/sequential/conv_transpose_._0/Squeeze", "op": "Squeeze", "input": ["StatefulPartitionedCall/sequential/conv_transpose_._0/conv2d_transpose/BiasAdd"], "attr": {"squeeze_dims": {"list": {"i": ["2"]}}, "T": {"type": "DT_FLOAT"}}}, {"name": "StatefulPartitionedCall/sequential/residual_stack_._0._._0/shortcut/conv1d/ExpandDims", "op": "ExpandDims", "input": ["StatefulPartitionedCall/sequential/conv_transpose_._0/Squeeze", "StatefulPartitionedCall/sequential/residual_stack_._0._._0/shortcut/conv1d/ExpandDims/dim"], "attr": {"Tdim": {"type": "DT_INT32"}, "T": {"type": "DT_FLOAT"}}}, {"name": "StatefulPartitionedCall/sequential/residual_stack_._0._._0/leaky_re_lu_1/LeakyRelu", "op": "LeakyRelu", "input": ["StatefulPartitionedCall/sequential/conv_transpose_._0/Squeeze"], "attr": {"T": {"type": "DT_FLOAT"}, "alpha": {"f": 0.2}}}, {"name": "StatefulPartitionedCall/sequential/residual_stack_._0._._0/shortcut/conv1d", "op": "_FusedConv2D", "input": ["StatefulPartitionedCall/sequential/residual_stack_._0._._0/shortcut/conv1d/ExpandDims", "StatefulPartitionedCall/sequential/residual_stack_._0._._0/shortcut/conv1d/ExpandDims_1", "unknown_8"], "device": "/device:CPU:0", "attr": {"num_args": {"i": "1"}, "T": {"type": "DT_FLOAT"}, "data_format": {"s": "TkhXQw=="}, "strides": {"list": {"i": ["1", "1", "1", "1"]}}, "use_cudnn_on_gpu": {"b": true}, "explicit_paddings": {"list": {}}, "padding": {"s": "VkFMSUQ="}, "dilations": {"list": {"i": ["1", "1", "1", "1"]}}, "fused_ops": {"list": {"s": ["Qmlhc0FkZA=="]}}, "epsilon": {"f": 0.0}}}, {"name": "StatefulPartitionedCall/sequential/residual_stack_._0._._0/tf_reflection_pad1d/MirrorPad", "op": "MirrorPad", "input": ["StatefulPartitionedCall/sequential/residual_stack_._0._._0/leaky_re_lu_1/LeakyRelu", "StatefulPartitionedCall/sequential/residual_stack_._0._._0/tf_reflection_pad1d/MirrorPad/paddings"], "attr": {"Tpaddings": {"type": "DT_INT32"}, "mode": {"s": "UkVGTEVDVA=="}, "T": {"type": "DT_FLOAT"}}}, {"name": "StatefulPartitionedCall/sequential/residual_stack_._0._._0/shortcut/BiasAdd", "op": "Squeeze", "input": ["StatefulPartitionedCall/sequential/residual_stack_._0._._0/shortcut/conv1d"], "attr": {"squeeze_dims": {"list": {"i": ["-3"]}}, "T": {"type": "DT_FLOAT"}}}, {"name": "StatefulPartitionedCall/sequential/residual_stack_._0._._0/conv1d_1/conv1d/ExpandDims", "op": "ExpandDims", "input": ["StatefulPartitionedCall/sequential/residual_stack_._0._._0/tf_reflection_pad1d/MirrorPad", "StatefulPartitionedCall/sequential/residual_stack_._0._._0/conv1d_1/conv1d/ExpandDims/dim"], "attr": {"T": {"type": "DT_FLOAT"}, "Tdim": {"type": "DT_INT32"}}}, {"name": "StatefulPartitionedCall/sequential/residual_stack_._0._._0/conv1d_1/conv1d", "op": "_FusedConv2D", "input": ["StatefulPartitionedCall/sequential/residual_stack_._0._._0/conv1d_1/conv1d/ExpandDims", "StatefulPartitionedCall/sequential/residual_stack_._0._._0/conv1d_1/conv1d/ExpandDims_1", "unknown_4"], "device": "/device:CPU:0", "attr": {"epsilon": {"f": 0.0}, "data_format": {"s": "TkhXQw=="}, "use_cudnn_on_gpu": {"b": true}, "strides": {"list": {"i": ["1", "1", "1", "1"]}}, "padding": {"s": "VkFMSUQ="}, "fused_ops": {"list": {"s": ["Qmlhc0FkZA=="]}}, "explicit_paddings": {"list": {}}, "T": {"type": "DT_FLOAT"}, "dilations": {"list": {"i": ["1", "1", "1", "1"]}}, "num_args": {"i": "1"}}}, {"name": "StatefulPartitionedCall/sequential/residual_stack_._0._._0/conv1d_1/BiasAdd", "op": "Squeeze", "input": ["StatefulPartitionedCall/sequential/residual_stack_._0._._0/conv1d_1/conv1d"], "attr": {"squeeze_dims": {"list": {"i": ["-3"]}}, "T": {"type": "DT_FLOAT"}}}, {"name": "StatefulPartitionedCall/sequential/residual_stack_._0._._0/leaky_re_lu_2/LeakyRelu", "op": "LeakyRelu", "input": ["StatefulPartitionedCall/sequential/residual_stack_._0._._0/conv1d_1/BiasAdd"], "attr": {"alpha": {"f": 0.2}, "T": {"type": "DT_FLOAT"}}}, {"name": "StatefulPartitionedCall/sequential/residual_stack_._0._._0/conv1d_2/conv1d/ExpandDims", "op": "ExpandDims", "input": ["StatefulPartitionedCall/sequential/residual_stack_._0._._0/leaky_re_lu_2/LeakyRelu", "StatefulPartitionedCall/sequential/residual_stack_._0._._0/conv1d_2/conv1d/ExpandDims/dim"], "attr": {"Tdim": {"type": "DT_INT32"}, "T": {"type": "DT_FLOAT"}}}, {"name": "StatefulPartitionedCall/sequential/residual_stack_._0._._0/conv1d_2/conv1d", "op": "_FusedConv2D", "input": ["StatefulPartitionedCall/sequential/residual_stack_._0._._0/conv1d_2/conv1d/ExpandDims", "StatefulPartitionedCall/sequential/residual_stack_._0._._0/conv1d_2/conv1d/ExpandDims_1", "unknown_6"], "device": "/device:CPU:0", "attr": {"explicit_paddings": {"list": {}}, "dilations": {"list": {"i": ["1", "1", "1", "1"]}}, "T": {"type": "DT_FLOAT"}, "use_cudnn_on_gpu": {"b": true}, "num_args": {"i": "1"}, "strides": {"list": {"i": ["1", "1", "1", "1"]}}, "epsilon": {"f": 0.0}, "data_format": {"s": "TkhXQw=="}, "fused_ops": {"list": {"s": ["Qmlhc0FkZA=="]}}, "padding": {"s": "VkFMSUQ="}}}, {"name": "StatefulPartitionedCall/sequential/residual_stack_._0._._0/conv1d_2/BiasAdd", "op": "Squeeze", "input": ["StatefulPartitionedCall/sequential/residual_stack_._0._._0/conv1d_2/conv1d"], "attr": {"squeeze_dims": {"list": {"i": ["-3"]}}, "T": {"type": "DT_FLOAT"}}}, {"name": "StatefulPartitionedCall/sequential/residual_stack_._0._._0/add", "op": "AddV2", "input": ["StatefulPartitionedCall/sequential/residual_stack_._0._._0/shortcut/BiasAdd", "StatefulPartitionedCall/sequential/residual_stack_._0._._0/conv1d_2/BiasAdd"], "attr": {"T": {"type": "DT_FLOAT"}}}, {"name": "StatefulPartitionedCall/sequential/residual_stack_._0._._1/shortcut/conv1d/ExpandDims", "op": "ExpandDims", "input": ["StatefulPartitionedCall/sequential/residual_stack_._0._._0/add", "StatefulPartitionedCall/sequential/residual_stack_._0._._1/shortcut/conv1d/ExpandDims/dim"], "attr": {"T": {"type": "DT_FLOAT"}, "Tdim": {"type": "DT_INT32"}}}, {"name": "StatefulPartitionedCall/sequential/residual_stack_._0._._1/leaky_re_lu_3/LeakyRelu", "op": "LeakyRelu", "input": ["StatefulPartitionedCall/sequential/residual_stack_._0._._0/add"], "attr": {"T": {"type": "DT_FLOAT"}, "alpha": {"f": 0.2}}}, {"name": "StatefulPartitionedCall/sequential/residual_stack_._0._._1/shortcut/conv1d", "op": "_FusedConv2D", "input": ["StatefulPartitionedCall/sequential/residual_stack_._0._._1/shortcut/conv1d/ExpandDims", "StatefulPartitionedCall/sequential/residual_stack_._0._._1/shortcut/conv1d/ExpandDims_1", "unknown_14"], "device": "/device:CPU:0", "attr": {"explicit_paddings": {"list": {}}, "use_cudnn_on_gpu": {"b": true}, "fused_ops": {"list": {"s": ["Qmlhc0FkZA=="]}}, "T": {"type": "DT_FLOAT"}, "data_format": {"s": "TkhXQw=="}, "num_args": {"i": "1"}, "strides": {"list": {"i": ["1", "1", "1", "1"]}}, "epsilon": {"f": 0.0}, "padding": {"s": "VkFMSUQ="}, "dilations": {"list": {"i": ["1", "1", "1", "1"]}}}}, {"name": "StatefulPartitionedCall/sequential/residual_stack_._0._._1/tf_reflection_pad1d_1/MirrorPad", "op": "MirrorPad", "input": ["StatefulPartitionedCall/sequential/residual_stack_._0._._1/leaky_re_lu_3/LeakyRelu", "StatefulPartitionedCall/sequential/residual_stack_._0._._1/tf_reflection_pad1d_1/MirrorPad/paddings"], "attr": {"mode": {"s": "UkVGTEVDVA=="}, "Tpaddings": {"type": "DT_INT32"}, "T": {"type": "DT_FLOAT"}}}, {"name": "StatefulPartitionedCall/sequential/residual_stack_._0._._1/shortcut/BiasAdd", "op": "Squeeze", "input": ["StatefulPartitionedCall/sequential/residual_stack_._0._._1/shortcut/conv1d"], "attr": {"T": {"type": "DT_FLOAT"}, "squeeze_dims": {"list": {"i": ["-3"]}}}}, {"name": "StatefulPartitionedCall/sequential/residual_stack_._0._._1/conv1d_3/conv1d/Shape", "op": "Shape", "input": ["StatefulPartitionedCall/sequential/residual_stack_._0._._1/tf_reflection_pad1d_1/MirrorPad"], "attr": {"T": {"type": "DT_FLOAT"}, "out_type": {"type": "DT_INT32"}}}, {"name": "StatefulPartitionedCall/sequential/residual_stack_._0._._1/conv1d_3/conv1d/strided_slice", "op": "StridedSlice", "input": ["StatefulPartitionedCall/sequential/residual_stack_._0._._1/conv1d_3/conv1d/Shape", "StatefulPartitionedCall/sequential/residual_stack_._0._._1/conv1d_3/conv1d/strided_slice/stack", "StatefulPartitionedCall/sequential/residual_stack_._0._._1/conv1d_3/conv1d/strided_slice/stack_1", "StatefulPartitionedCall/sequential/residual_stack_._0._._1/conv1d_3/conv1d/strided_slice/stack_2"], "attr": {"Index": {"type": "DT_INT32"}, "ellipsis_mask": {"i": "0"}, "end_mask": {"i": "0"}, "T": {"type": "DT_INT32"}, "new_axis_mask": {"i": "0"}, "shrink_axis_mask": {"i": "1"}, "begin_mask": {"i": "0"}}}, {"name": "ConstantFolding/StatefulPartitionedCall/sequential/residual_stack_._0._._1/conv1d_3/conv1d/stack_const_axis", "op": "Const", "input": ["^StatefulPartitionedCall/sequential/residual_stack_._0._._1/conv1d_3/conv1d/strided_slice"], "attr": {"value": {"tensor": {"dtype": "DT_INT32", "tensorShape": {}}}, "dtype": {"type": "DT_INT32"}}}, {"name": "StatefulPartitionedCall/sequential/residual_stack_._0._._1/conv1d_3/conv1d/stack", "op": "ExpandDims", "input": ["StatefulPartitionedCall/sequential/residual_stack_._0._._1/conv1d_3/conv1d/strided_slice", "ConstantFolding/StatefulPartitionedCall/sequential/residual_stack_._0._._1/conv1d_3/conv1d/stack_const_axis"], "attr": {"T": {"type": "DT_INT32"}, "Tdim": {"type": "DT_INT32"}}}, {"name": "StatefulPartitionedCall/sequential/residual_stack_._0._._1/conv1d_3/conv1d/required_space_to_batch_paddings/mod", "op": "FloorMod", "input": ["StatefulPartitionedCall/sequential/residual_stack_._0._._1/conv1d_3/conv1d/stack", "StatefulPartitionedCall/sequential/residual_stack_._0._._1/conv1d_3/conv1d/dilation_rate"], "attr": {"T": {"type": "DT_INT32"}}}, {"name": "StatefulPartitionedCall/sequential/residual_stack_._0._._1/conv1d_3/conv1d/required_space_to_batch_paddings/sub", "op": "Sub", "input": ["StatefulPartitionedCall/sequential/residual_stack_._0._._1/conv1d_3/conv1d/dilation_rate", "StatefulPartitionedCall/sequential/residual_stack_._0._._1/conv1d_3/conv1d/required_space_to_batch_paddings/mod"], "attr": {"T": {"type": "DT_INT32"}}}, {"name": "StatefulPartitionedCall/sequential/residual_stack_._0._._1/conv1d_3/conv1d/required_space_to_batch_paddings/mod_1", "op": "FloorMod", "input": ["StatefulPartitionedCall/sequential/residual_stack_._0._._1/conv1d_3/conv1d/required_space_to_batch_paddings/sub", "StatefulPartitionedCall/sequential/residual_stack_._0._._1/conv1d_3/conv1d/dilation_rate"], "attr": {"T": {"type": "DT_INT32"}}}, {"name": "StatefulPartitionedCall/sequential/residual_stack_._0._._1/conv1d_3/conv1d/required_space_to_batch_paddings/strided_slice_3", "op": "StridedSlice", "input": ["StatefulPartitionedCall/sequential/residual_stack_._0._._1/conv1d_3/conv1d/required_space_to_batch_paddings/mod_1", "StatefulPartitionedCall/sequential/residual_stack_._0._._1/conv1d_3/conv1d/required_space_to_batch_paddings/strided_slice_3/stack", "StatefulPartitionedCall/sequential/residual_stack_._0._._1/conv1d_3/conv1d/required_space_to_batch_paddings/strided_slice_3/stack_1", "StatefulPartitionedCall/sequential/residual_stack_._0._._1/conv1d_3/conv1d/required_space_to_batch_paddings/strided_slice_3/stack_2"], "attr": {"Index": {"type": "DT_INT32"}, "begin_mask": {"i": "0"}, "ellipsis_mask": {"i": "0"}, "T": {"type": "DT_INT32"}, "new_axis_mask": {"i": "0"}, "shrink_axis_mask": {"i": "1"}, "end_mask": {"i": "0"}}}, {"name": "StatefulPartitionedCall/sequential/residual_stack_._0._._1/conv1d_3/conv1d/required_space_to_batch_paddings/strided_slice_4", "op": "StridedSlice", "input": ["StatefulPartitionedCall/sequential/residual_stack_._0._._1/conv1d_3/conv1d/required_space_to_batch_paddings/mod_1", "StatefulPartitionedCall/sequential/residual_stack_._0._._1/conv1d_3/conv1d/required_space_to_batch_paddings/strided_slice_4/stack", "StatefulPartitionedCall/sequential/residual_stack_._0._._1/conv1d_3/conv1d/required_space_to_batch_paddings/strided_slice_4/stack_1", "StatefulPartitionedCall/sequential/residual_stack_._0._._1/conv1d_3/conv1d/required_space_to_batch_paddings/strided_slice_4/stack_2"], "attr": {"ellipsis_mask": {"i": "0"}, "end_mask": {"i": "0"}, "new_axis_mask": {"i": "0"}, "shrink_axis_mask": {"i": "1"}, "Index": {"type": "DT_INT32"}, "T": {"type": "DT_INT32"}, "begin_mask": {"i": "0"}}}, {"name": "StatefulPartitionedCall/sequential/residual_stack_._0._._1/conv1d_3/conv1d/required_space_to_batch_paddings/paddings/0", "op": "Pack", "input": ["StatefulPartitionedCall/sequential/residual_stack_._0._._1/conv1d_3/conv1d/required_space_to_batch_paddings/strided_slice_2", "StatefulPartitionedCall/sequential/residual_stack_._0._._1/conv1d_3/conv1d/required_space_to_batch_paddings/strided_slice_3"], "attr": {"axis": {"i": "0"}, "N": {"i": "2"}, "T": {"type": "DT_INT32"}}}, {"name": "StatefulPartitionedCall/sequential/residual_stack_._0._._1/conv1d_3/conv1d/required_space_to_batch_paddings/crops/0", "op": "Pack", "input": ["StatefulPartitionedCall/sequential/residual_stack_._0._._1/conv1d_3/conv1d/required_space_to_batch_paddings/crops/0/0", "StatefulPartitionedCall/sequential/residual_stack_._0._._1/conv1d_3/conv1d/required_space_to_batch_paddings/strided_slice_4"], "attr": {"N": {"i": "2"}, "T": {"type": "DT_INT32"}, "axis": {"i": "0"}}}, {"name": "ConstantFolding/StatefulPartitionedCall/sequential/residual_stack_._0._._1/conv1d_3/conv1d/required_space_to_batch_paddings/paddings_const_axis", "op": "Const", "input": ["^StatefulPartitionedCall/sequential/residual_stack_._0._._1/conv1d_3/conv1d/required_space_to_batch_paddings/paddings/0"], "attr": {"dtype": {"type": "DT_INT32"}, "value": {"tensor": {"dtype": "DT_INT32", "tensorShape": {}}}}}, {"name": "ConstantFolding/StatefulPartitionedCall/sequential/residual_stack_._0._._1/conv1d_3/conv1d/required_space_to_batch_paddings/crops_const_axis", "op": "Const", "input": ["^StatefulPartitionedCall/sequential/residual_stack_._0._._1/conv1d_3/conv1d/required_space_to_batch_paddings/crops/0"], "attr": {"value": {"tensor": {"dtype": "DT_INT32", "tensorShape": {}}}, "dtype": {"type": "DT_INT32"}}}, {"name": "StatefulPartitionedCall/sequential/residual_stack_._0._._1/conv1d_3/conv1d/required_space_to_batch_paddings/paddings", "op": "ExpandDims", "input": ["StatefulPartitionedCall/sequential/residual_stack_._0._._1/conv1d_3/conv1d/required_space_to_batch_paddings/paddings/0", "ConstantFolding/StatefulPartitionedCall/sequential/residual_stack_._0._._1/conv1d_3/conv1d/required_space_to_batch_paddings/paddings_const_axis"], "attr": {"Tdim": {"type": "DT_INT32"}, "T": {"type": "DT_INT32"}}}, {"name": "StatefulPartitionedCall/sequential/residual_stack_._0._._1/conv1d_3/conv1d/required_space_to_batch_paddings/crops", "op": "ExpandDims", "input": ["StatefulPartitionedCall/sequential/residual_stack_._0._._1/conv1d_3/conv1d/required_space_to_batch_paddings/crops/0", "ConstantFolding/StatefulPartitionedCall/sequential/residual_stack_._0._._1/conv1d_3/conv1d/required_space_to_batch_paddings/crops_const_axis"], "attr": {"T": {"type": "DT_INT32"}, "Tdim": {"type": "DT_INT32"}}}, {"name": "StatefulPartitionedCall/sequential/residual_stack_._0._._1/conv1d_3/conv1d/SpaceToBatchND", "op": "SpaceToBatchND", "input": ["StatefulPartitionedCall/sequential/residual_stack_._0._._1/tf_reflection_pad1d_1/MirrorPad", "StatefulPartitionedCall/sequential/residual_stack_._0._._1/conv1d_3/conv1d/SpaceToBatchND/block_shape", "StatefulPartitionedCall/sequential/residual_stack_._0._._1/conv1d_3/conv1d/required_space_to_batch_paddings/paddings"], "attr": {"Tblock_shape": {"type": "DT_INT32"}, "T": {"type": "DT_FLOAT"}, "Tpaddings": {"type": "DT_INT32"}}}, {"name": "StatefulPartitionedCall/sequential/residual_stack_._0._._1/conv1d_3/conv1d/ExpandDims", "op": "ExpandDims", "input": ["StatefulPartitionedCall/sequential/residual_stack_._0._._1/conv1d_3/conv1d/SpaceToBatchND", "StatefulPartitionedCall/sequential/residual_stack_._0._._1/conv1d_3/conv1d/ExpandDims/dim"], "attr": {"Tdim": {"type": "DT_INT32"}, "T": {"type": "DT_FLOAT"}}}, {"name": "StatefulPartitionedCall/sequential/residual_stack_._0._._1/conv1d_3/conv1d", "op": "Conv2D", "input": ["StatefulPartitionedCall/sequential/residual_stack_._0._._1/conv1d_3/conv1d/ExpandDims", "StatefulPartitionedCall/sequential/residual_stack_._0._._1/conv1d_3/conv1d/ExpandDims_1"], "device": "/device:CPU:0", "attr": {"data_format": {"s": "TkhXQw=="}, "dilations": {"list": {"i": ["1", "1", "1", "1"]}}, "strides": {"list": {"i": ["1", "1", "1", "1"]}}, "use_cudnn_on_gpu": {"b": true}, "padding": {"s": "VkFMSUQ="}, "explicit_paddings": {"list": {}}, "T": {"type": "DT_FLOAT"}}}, {"name": "StatefulPartitionedCall/sequential/residual_stack_._0._._1/conv1d_3/conv1d/Squeeze", "op": "Squeeze", "input": ["StatefulPartitionedCall/sequential/residual_stack_._0._._1/conv1d_3/conv1d"], "attr": {"T": {"type": "DT_FLOAT"}, "squeeze_dims": {"list": {"i": ["-3"]}}}}, {"name": "StatefulPartitionedCall/sequential/residual_stack_._0._._1/conv1d_3/conv1d/BatchToSpaceND", "op": "BatchToSpaceND", "input": ["StatefulPartitionedCall/sequential/residual_stack_._0._._1/conv1d_3/conv1d/Squeeze", "StatefulPartitionedCall/sequential/residual_stack_._0._._1/conv1d_3/conv1d/BatchToSpaceND/block_shape", "StatefulPartitionedCall/sequential/residual_stack_._0._._1/conv1d_3/conv1d/required_space_to_batch_paddings/crops"], "attr": {"T": {"type": "DT_FLOAT"}, "Tblock_shape": {"type": "DT_INT32"}, "Tcrops": {"type": "DT_INT32"}}}, {"name": "StatefulPartitionedCall/sequential/residual_stack_._0._._1/conv1d_3/BiasAdd", "op": "BiasAdd", "input": ["StatefulPartitionedCall/sequential/residual_stack_._0._._1/conv1d_3/conv1d/BatchToSpaceND", "unknown_10"], "attr": {"data_format": {"s": "TkhXQw=="}, "T": {"type": "DT_FLOAT"}}}, {"name": "StatefulPartitionedCall/sequential/residual_stack_._0._._1/leaky_re_lu_4/LeakyRelu", "op": "LeakyRelu", "input": ["StatefulPartitionedCall/sequential/residual_stack_._0._._1/conv1d_3/BiasAdd"], "attr": {"alpha": {"f": 0.2}, "T": {"type": "DT_FLOAT"}}}, {"name": "StatefulPartitionedCall/sequential/residual_stack_._0._._1/conv1d_4/conv1d/ExpandDims", "op": "ExpandDims", "input": ["StatefulPartitionedCall/sequential/residual_stack_._0._._1/leaky_re_lu_4/LeakyRelu", "StatefulPartitionedCall/sequential/residual_stack_._0._._1/conv1d_4/conv1d/ExpandDims/dim"], "attr": {"Tdim": {"type": "DT_INT32"}, "T": {"type": "DT_FLOAT"}}}, {"name": "StatefulPartitionedCall/sequential/residual_stack_._0._._1/conv1d_4/conv1d", "op": "_FusedConv2D", "input": ["StatefulPartitionedCall/sequential/residual_stack_._0._._1/conv1d_4/conv1d/ExpandDims", "StatefulPartitionedCall/sequential/residual_stack_._0._._1/conv1d_4/conv1d/ExpandDims_1", "unknown_12"], "device": "/device:CPU:0", "attr": {"data_format": {"s": "TkhXQw=="}, "padding": {"s": "VkFMSUQ="}, "use_cudnn_on_gpu": {"b": true}, "dilations": {"list": {"i": ["1", "1", "1", "1"]}}, "explicit_paddings": {"list": {}}, "epsilon": {"f": 0.0}, "strides": {"list": {"i": ["1", "1", "1", "1"]}}, "fused_ops": {"list": {"s": ["Qmlhc0FkZA=="]}}, "T": {"type": "DT_FLOAT"}, "num_args": {"i": "1"}}}, {"name": "StatefulPartitionedCall/sequential/residual_stack_._0._._1/conv1d_4/BiasAdd", "op": "Squeeze", "input": ["StatefulPartitionedCall/sequential/residual_stack_._0._._1/conv1d_4/conv1d"], "attr": {"T": {"type": "DT_FLOAT"}, "squeeze_dims": {"list": {"i": ["-3"]}}}}, {"name": "StatefulPartitionedCall/sequential/residual_stack_._0._._1/add", "op": "AddV2", "input": ["StatefulPartitionedCall/sequential/residual_stack_._0._._1/shortcut/BiasAdd", "StatefulPartitionedCall/sequential/residual_stack_._0._._1/conv1d_4/BiasAdd"], "attr": {"T": {"type": "DT_FLOAT"}}}, {"name": "StatefulPartitionedCall/sequential/residual_stack_._0._._2/shortcut/conv1d/ExpandDims", "op": "ExpandDims", "input": ["StatefulPartitionedCall/sequential/residual_stack_._0._._1/add", "StatefulPartitionedCall/sequential/residual_stack_._0._._2/shortcut/conv1d/ExpandDims/dim"], "attr": {"T": {"type": "DT_FLOAT"}, "Tdim": {"type": "DT_INT32"}}}, {"name": "StatefulPartitionedCall/sequential/residual_stack_._0._._2/leaky_re_lu_5/LeakyRelu", "op": "LeakyRelu", "input": ["StatefulPartitionedCall/sequential/residual_stack_._0._._1/add"], "attr": {"alpha": {"f": 0.2}, "T": {"type": "DT_FLOAT"}}}, {"name": "StatefulPartitionedCall/sequential/residual_stack_._0._._2/shortcut/conv1d", "op": "_FusedConv2D", "input": ["StatefulPartitionedCall/sequential/residual_stack_._0._._2/shortcut/conv1d/ExpandDims", "StatefulPartitionedCall/sequential/residual_stack_._0._._2/shortcut/conv1d/ExpandDims_1", "unknown_20"], "device": "/device:CPU:0", "attr": {"use_cudnn_on_gpu": {"b": true}, "epsilon": {"f": 0.0}, "data_format": {"s": "TkhXQw=="}, "T": {"type": "DT_FLOAT"}, "fused_ops": {"list": {"s": ["Qmlhc0FkZA=="]}}, "strides": {"list": {"i": ["1", "1", "1", "1"]}}, "explicit_paddings": {"list": {}}, "padding": {"s": "VkFMSUQ="}, "dilations": {"list": {"i": ["1", "1", "1", "1"]}}, "num_args": {"i": "1"}}}, {"name": "StatefulPartitionedCall/sequential/residual_stack_._0._._2/tf_reflection_pad1d_2/MirrorPad", "op": "MirrorPad", "input": ["StatefulPartitionedCall/sequential/residual_stack_._0._._2/leaky_re_lu_5/LeakyRelu", "StatefulPartitionedCall/sequential/residual_stack_._0._._2/tf_reflection_pad1d_2/MirrorPad/paddings"], "attr": {"T": {"type": "DT_FLOAT"}, "Tpaddings": {"type": "DT_INT32"}, "mode": {"s": "UkVGTEVDVA=="}}}, {"name": "StatefulPartitionedCall/sequential/residual_stack_._0._._2/shortcut/BiasAdd", "op": "Squeeze", "input": ["StatefulPartitionedCall/sequential/residual_stack_._0._._2/shortcut/conv1d"], "attr": {"squeeze_dims": {"list": {"i": ["-3"]}}, "T": {"type": "DT_FLOAT"}}}, {"name": "StatefulPartitionedCall/sequential/residual_stack_._0._._2/conv1d_5/conv1d/Shape", "op": "Shape", "input": ["StatefulPartitionedCall/sequential/residual_stack_._0._._2/tf_reflection_pad1d_2/MirrorPad"], "attr": {"T": {"type": "DT_FLOAT"}, "out_type": {"type": "DT_INT32"}}}, {"name": "StatefulPartitionedCall/sequential/residual_stack_._0._._2/conv1d_5/conv1d/strided_slice", "op": "StridedSlice", "input": ["StatefulPartitionedCall/sequential/residual_stack_._0._._2/conv1d_5/conv1d/Shape", "StatefulPartitionedCall/sequential/residual_stack_._0._._2/conv1d_5/conv1d/strided_slice/stack", "StatefulPartitionedCall/sequential/residual_stack_._0._._2/conv1d_5/conv1d/strided_slice/stack_1", "StatefulPartitionedCall/sequential/residual_stack_._0._._2/conv1d_5/conv1d/strided_slice/stack_2"], "attr": {"T": {"type": "DT_INT32"}, "new_axis_mask": {"i": "0"}, "end_mask": {"i": "0"}, "shrink_axis_mask": {"i": "1"}, "Index": {"type": "DT_INT32"}, "begin_mask": {"i": "0"}, "ellipsis_mask": {"i": "0"}}}, {"name": "ConstantFolding/StatefulPartitionedCall/sequential/residual_stack_._0._._2/conv1d_5/conv1d/stack_const_axis", "op": "Const", "input": ["^StatefulPartitionedCall/sequential/residual_stack_._0._._2/conv1d_5/conv1d/strided_slice"], "attr": {"value": {"tensor": {"dtype": "DT_INT32", "tensorShape": {}}}, "dtype": {"type": "DT_INT32"}}}, {"name": "StatefulPartitionedCall/sequential/residual_stack_._0._._2/conv1d_5/conv1d/stack", "op": "ExpandDims", "input": ["StatefulPartitionedCall/sequential/residual_stack_._0._._2/conv1d_5/conv1d/strided_slice", "ConstantFolding/StatefulPartitionedCall/sequential/residual_stack_._0._._2/conv1d_5/conv1d/stack_const_axis"], "attr": {"T": {"type": "DT_INT32"}, "Tdim": {"type": "DT_INT32"}}}, {"name": "StatefulPartitionedCall/sequential/residual_stack_._0._._2/conv1d_5/conv1d/required_space_to_batch_paddings/mod", "op": "FloorMod", "input": ["StatefulPartitionedCall/sequential/residual_stack_._0._._2/conv1d_5/conv1d/stack", "StatefulPartitionedCall/sequential/residual_stack_._0._._2/conv1d_5/conv1d/dilation_rate"], "attr": {"T": {"type": "DT_INT32"}}}, {"name": "StatefulPartitionedCall/sequential/residual_stack_._0._._2/conv1d_5/conv1d/required_space_to_batch_paddings/sub", "op": "Sub", "input": ["StatefulPartitionedCall/sequential/residual_stack_._0._._2/conv1d_5/conv1d/dilation_rate", "StatefulPartitionedCall/sequential/residual_stack_._0._._2/conv1d_5/conv1d/required_space_to_batch_paddings/mod"], "attr": {"T": {"type": "DT_INT32"}}}, {"name": "StatefulPartitionedCall/sequential/residual_stack_._0._._2/conv1d_5/conv1d/required_space_to_batch_paddings/mod_1", "op": "FloorMod", "input": ["StatefulPartitionedCall/sequential/residual_stack_._0._._2/conv1d_5/conv1d/required_space_to_batch_paddings/sub", "StatefulPartitionedCall/sequential/residual_stack_._0._._2/conv1d_5/conv1d/dilation_rate"], "attr": {"T": {"type": "DT_INT32"}}}, {"name": "StatefulPartitionedCall/sequential/residual_stack_._0._._2/conv1d_5/conv1d/required_space_to_batch_paddings/strided_slice_3", "op": "StridedSlice", "input": ["StatefulPartitionedCall/sequential/residual_stack_._0._._2/conv1d_5/conv1d/required_space_to_batch_paddings/mod_1", "StatefulPartitionedCall/sequential/residual_stack_._0._._2/conv1d_5/conv1d/required_space_to_batch_paddings/strided_slice_3/stack", "StatefulPartitionedCall/sequential/residual_stack_._0._._2/conv1d_5/conv1d/required_space_to_batch_paddings/strided_slice_3/stack_1", "StatefulPartitionedCall/sequential/residual_stack_._0._._2/conv1d_5/conv1d/required_space_to_batch_paddings/strided_slice_3/stack_2"], "attr": {"shrink_axis_mask": {"i": "1"}, "Index": {"type": "DT_INT32"}, "ellipsis_mask": {"i": "0"}, "begin_mask": {"i": "0"}, "end_mask": {"i": "0"}, "new_axis_mask": {"i": "0"}, "T": {"type": "DT_INT32"}}}, {"name": "StatefulPartitionedCall/sequential/residual_stack_._0._._2/conv1d_5/conv1d/required_space_to_batch_paddings/strided_slice_4", "op": "StridedSlice", "input": ["StatefulPartitionedCall/sequential/residual_stack_._0._._2/conv1d_5/conv1d/required_space_to_batch_paddings/mod_1", "StatefulPartitionedCall/sequential/residual_stack_._0._._2/conv1d_5/conv1d/required_space_to_batch_paddings/strided_slice_4/stack", "StatefulPartitionedCall/sequential/residual_stack_._0._._2/conv1d_5/conv1d/required_space_to_batch_paddings/strided_slice_4/stack_1", "StatefulPartitionedCall/sequential/residual_stack_._0._._2/conv1d_5/conv1d/required_space_to_batch_paddings/strided_slice_4/stack_2"], "attr": {"T": {"type": "DT_INT32"}, "ellipsis_mask": {"i": "0"}, "end_mask": {"i": "0"}, "new_axis_mask": {"i": "0"}, "begin_mask": {"i": "0"}, "shrink_axis_mask": {"i": "1"}, "Index": {"type": "DT_INT32"}}}, {"name": "StatefulPartitionedCall/sequential/residual_stack_._0._._2/conv1d_5/conv1d/required_space_to_batch_paddings/paddings/0", "op": "Pack", "input": ["StatefulPartitionedCall/sequential/residual_stack_._0._._2/conv1d_5/conv1d/required_space_to_batch_paddings/strided_slice_2", "StatefulPartitionedCall/sequential/residual_stack_._0._._2/conv1d_5/conv1d/required_space_to_batch_paddings/strided_slice_3"], "attr": {"T": {"type": "DT_INT32"}, "N": {"i": "2"}, "axis": {"i": "0"}}}, {"name": "StatefulPartitionedCall/sequential/residual_stack_._0._._2/conv1d_5/conv1d/required_space_to_batch_paddings/crops/0", "op": "Pack", "input": ["StatefulPartitionedCall/sequential/residual_stack_._0._._2/conv1d_5/conv1d/required_space_to_batch_paddings/crops/0/0", "StatefulPartitionedCall/sequential/residual_stack_._0._._2/conv1d_5/conv1d/required_space_to_batch_paddings/strided_slice_4"], "attr": {"T": {"type": "DT_INT32"}, "N": {"i": "2"}, "axis": {"i": "0"}}}, {"name": "ConstantFolding/StatefulPartitionedCall/sequential/residual_stack_._0._._2/conv1d_5/conv1d/required_space_to_batch_paddings/paddings_const_axis", "op": "Const", "input": ["^StatefulPartitionedCall/sequential/residual_stack_._0._._2/conv1d_5/conv1d/required_space_to_batch_paddings/paddings/0"], "attr": {"value": {"tensor": {"dtype": "DT_INT32", "tensorShape": {}}}, "dtype": {"type": "DT_INT32"}}}, {"name": "ConstantFolding/StatefulPartitionedCall/sequential/residual_stack_._0._._2/conv1d_5/conv1d/required_space_to_batch_paddings/crops_const_axis", "op": "Const", "input": ["^StatefulPartitionedCall/sequential/residual_stack_._0._._2/conv1d_5/conv1d/required_space_to_batch_paddings/crops/0"], "attr": {"dtype": {"type": "DT_INT32"}, "value": {"tensor": {"dtype": "DT_INT32", "tensorShape": {}}}}}, {"name": "StatefulPartitionedCall/sequential/residual_stack_._0._._2/conv1d_5/conv1d/required_space_to_batch_paddings/paddings", "op": "ExpandDims", "input": ["StatefulPartitionedCall/sequential/residual_stack_._0._._2/conv1d_5/conv1d/required_space_to_batch_paddings/paddings/0", "ConstantFolding/StatefulPartitionedCall/sequential/residual_stack_._0._._2/conv1d_5/conv1d/required_space_to_batch_paddings/paddings_const_axis"], "attr": {"T": {"type": "DT_INT32"}, "Tdim": {"type": "DT_INT32"}}}, {"name": "StatefulPartitionedCall/sequential/residual_stack_._0._._2/conv1d_5/conv1d/required_space_to_batch_paddings/crops", "op": "ExpandDims", "input": ["StatefulPartitionedCall/sequential/residual_stack_._0._._2/conv1d_5/conv1d/required_space_to_batch_paddings/crops/0", "ConstantFolding/StatefulPartitionedCall/sequential/residual_stack_._0._._2/conv1d_5/conv1d/required_space_to_batch_paddings/crops_const_axis"], "attr": {"T": {"type": "DT_INT32"}, "Tdim": {"type": "DT_INT32"}}}, {"name": "StatefulPartitionedCall/sequential/residual_stack_._0._._2/conv1d_5/conv1d/SpaceToBatchND", "op": "SpaceToBatchND", "input": ["StatefulPartitionedCall/sequential/residual_stack_._0._._2/tf_reflection_pad1d_2/MirrorPad", "StatefulPartitionedCall/sequential/residual_stack_._0._._2/conv1d_5/conv1d/SpaceToBatchND/block_shape", "StatefulPartitionedCall/sequential/residual_stack_._0._._2/conv1d_5/conv1d/required_space_to_batch_paddings/paddings"], "attr": {"Tpaddings": {"type": "DT_INT32"}, "Tblock_shape": {"type": "DT_INT32"}, "T": {"type": "DT_FLOAT"}}}, {"name": "StatefulPartitionedCall/sequential/residual_stack_._0._._2/conv1d_5/conv1d/ExpandDims", "op": "ExpandDims", "input": ["StatefulPartitionedCall/sequential/residual_stack_._0._._2/conv1d_5/conv1d/SpaceToBatchND", "StatefulPartitionedCall/sequential/residual_stack_._0._._2/conv1d_5/conv1d/ExpandDims/dim"], "attr": {"Tdim": {"type": "DT_INT32"}, "T": {"type": "DT_FLOAT"}}}, {"name": "StatefulPartitionedCall/sequential/residual_stack_._0._._2/conv1d_5/conv1d", "op": "Conv2D", "input": ["StatefulPartitionedCall/sequential/residual_stack_._0._._2/conv1d_5/conv1d/ExpandDims", "StatefulPartitionedCall/sequential/residual_stack_._0._._2/conv1d_5/conv1d/ExpandDims_1"], "device": "/device:CPU:0", "attr": {"dilations": {"list": {"i": ["1", "1", "1", "1"]}}, "use_cudnn_on_gpu": {"b": true}, "strides": {"list": {"i": ["1", "1", "1", "1"]}}, "data_format": {"s": "TkhXQw=="}, "T": {"type": "DT_FLOAT"}, "padding": {"s": "VkFMSUQ="}, "explicit_paddings": {"list": {}}}}, {"name": "StatefulPartitionedCall/sequential/residual_stack_._0._._2/conv1d_5/conv1d/Squeeze", "op": "Squeeze", "input": ["StatefulPartitionedCall/sequential/residual_stack_._0._._2/conv1d_5/conv1d"], "attr": {"T": {"type": "DT_FLOAT"}, "squeeze_dims": {"list": {"i": ["-3"]}}}}, {"name": "StatefulPartitionedCall/sequential/residual_stack_._0._._2/conv1d_5/conv1d/BatchToSpaceND", "op": "BatchToSpaceND", "input": ["StatefulPartitionedCall/sequential/residual_stack_._0._._2/conv1d_5/conv1d/Squeeze", "StatefulPartitionedCall/sequential/residual_stack_._0._._2/conv1d_5/conv1d/BatchToSpaceND/block_shape", "StatefulPartitionedCall/sequential/residual_stack_._0._._2/conv1d_5/conv1d/required_space_to_batch_paddings/crops"], "attr": {"T": {"type": "DT_FLOAT"}, "Tcrops": {"type": "DT_INT32"}, "Tblock_shape": {"type": "DT_INT32"}}}, {"name": "StatefulPartitionedCall/sequential/residual_stack_._0._._2/conv1d_5/BiasAdd", "op": "BiasAdd", "input": ["StatefulPartitionedCall/sequential/residual_stack_._0._._2/conv1d_5/conv1d/BatchToSpaceND", "unknown_16"], "attr": {"T": {"type": "DT_FLOAT"}, "data_format": {"s": "TkhXQw=="}}}, {"name": "StatefulPartitionedCall/sequential/residual_stack_._0._._2/leaky_re_lu_6/LeakyRelu", "op": "LeakyRelu", "input": ["StatefulPartitionedCall/sequential/residual_stack_._0._._2/conv1d_5/BiasAdd"], "attr": {"alpha": {"f": 0.2}, "T": {"type": "DT_FLOAT"}}}, {"name": "StatefulPartitionedCall/sequential/residual_stack_._0._._2/conv1d_6/conv1d/ExpandDims", "op": "ExpandDims", "input": ["StatefulPartitionedCall/sequential/residual_stack_._0._._2/leaky_re_lu_6/LeakyRelu", "StatefulPartitionedCall/sequential/residual_stack_._0._._2/conv1d_6/conv1d/ExpandDims/dim"], "attr": {"Tdim": {"type": "DT_INT32"}, "T": {"type": "DT_FLOAT"}}}, {"name": "StatefulPartitionedCall/sequential/residual_stack_._0._._2/conv1d_6/conv1d", "op": "_FusedConv2D", "input": ["StatefulPartitionedCall/sequential/residual_stack_._0._._2/conv1d_6/conv1d/ExpandDims", "StatefulPartitionedCall/sequential/residual_stack_._0._._2/conv1d_6/conv1d/ExpandDims_1", "unknown_18"], "device": "/device:CPU:0", "attr": {"T": {"type": "DT_FLOAT"}, "use_cudnn_on_gpu": {"b": true}, "strides": {"list": {"i": ["1", "1", "1", "1"]}}, "padding": {"s": "VkFMSUQ="}, "data_format": {"s": "TkhXQw=="}, "fused_ops": {"list": {"s": ["Qmlhc0FkZA=="]}}, "dilations": {"list": {"i": ["1", "1", "1", "1"]}}, "epsilon": {"f": 0.0}, "explicit_paddings": {"list": {}}, "num_args": {"i": "1"}}}, {"name": "StatefulPartitionedCall/sequential/residual_stack_._0._._2/conv1d_6/BiasAdd", "op": "Squeeze", "input": ["StatefulPartitionedCall/sequential/residual_stack_._0._._2/conv1d_6/conv1d"], "attr": {"squeeze_dims": {"list": {"i": ["-3"]}}, "T": {"type": "DT_FLOAT"}}}, {"name": "StatefulPartitionedCall/sequential/residual_stack_._0._._2/add", "op": "AddV2", "input": ["StatefulPartitionedCall/sequential/residual_stack_._0._._2/shortcut/BiasAdd", "StatefulPartitionedCall/sequential/residual_stack_._0._._2/conv1d_6/BiasAdd"], "attr": {"T": {"type": "DT_FLOAT"}}}, {"name": "StatefulPartitionedCall/sequential/residual_stack_._0._._3/shortcut/conv1d/ExpandDims", "op": "ExpandDims", "input": ["StatefulPartitionedCall/sequential/residual_stack_._0._._2/add", "StatefulPartitionedCall/sequential/residual_stack_._0._._3/shortcut/conv1d/ExpandDims/dim"], "attr": {"T": {"type": "DT_FLOAT"}, "Tdim": {"type": "DT_INT32"}}}, {"name": "StatefulPartitionedCall/sequential/residual_stack_._0._._3/leaky_re_lu_7/LeakyRelu", "op": "LeakyRelu", "input": ["StatefulPartitionedCall/sequential/residual_stack_._0._._2/add"], "attr": {"T": {"type": "DT_FLOAT"}, "alpha": {"f": 0.2}}}, {"name": "StatefulPartitionedCall/sequential/residual_stack_._0._._3/shortcut/conv1d", "op": "_FusedConv2D", "input": ["StatefulPartitionedCall/sequential/residual_stack_._0._._3/shortcut/conv1d/ExpandDims", "StatefulPartitionedCall/sequential/residual_stack_._0._._3/shortcut/conv1d/ExpandDims_1", "unknown_26"], "device": "/device:CPU:0", "attr": {"explicit_paddings": {"list": {}}, "dilations": {"list": {"i": ["1", "1", "1", "1"]}}, "use_cudnn_on_gpu": {"b": true}, "T": {"type": "DT_FLOAT"}, "padding": {"s": "VkFMSUQ="}, "num_args": {"i": "1"}, "fused_ops": {"list": {"s": ["Qmlhc0FkZA=="]}}, "data_format": {"s": "TkhXQw=="}, "strides": {"list": {"i": ["1", "1", "1", "1"]}}, "epsilon": {"f": 0.0}}}, {"name": "StatefulPartitionedCall/sequential/residual_stack_._0._._3/tf_reflection_pad1d_3/MirrorPad", "op": "MirrorPad", "input": ["StatefulPartitionedCall/sequential/residual_stack_._0._._3/leaky_re_lu_7/LeakyRelu", "StatefulPartitionedCall/sequential/residual_stack_._0._._3/tf_reflection_pad1d_3/MirrorPad/paddings"], "attr": {"Tpaddings": {"type": "DT_INT32"}, "T": {"type": "DT_FLOAT"}, "mode": {"s": "UkVGTEVDVA=="}}}, {"name": "StatefulPartitionedCall/sequential/residual_stack_._0._._3/shortcut/BiasAdd", "op": "Squeeze", "input": ["StatefulPartitionedCall/sequential/residual_stack_._0._._3/shortcut/conv1d"], "attr": {"squeeze_dims": {"list": {"i": ["-3"]}}, "T": {"type": "DT_FLOAT"}}}, {"name": "StatefulPartitionedCall/sequential/residual_stack_._0._._3/conv1d_7/conv1d/Shape", "op": "Shape", "input": ["StatefulPartitionedCall/sequential/residual_stack_._0._._3/tf_reflection_pad1d_3/MirrorPad"], "attr": {"out_type": {"type": "DT_INT32"}, "T": {"type": "DT_FLOAT"}}}, {"name": "StatefulPartitionedCall/sequential/residual_stack_._0._._3/conv1d_7/conv1d/strided_slice", "op": "StridedSlice", "input": ["StatefulPartitionedCall/sequential/residual_stack_._0._._3/conv1d_7/conv1d/Shape", "StatefulPartitionedCall/sequential/residual_stack_._0._._3/conv1d_7/conv1d/strided_slice/stack", "StatefulPartitionedCall/sequential/residual_stack_._0._._3/conv1d_7/conv1d/strided_slice/stack_1", "StatefulPartitionedCall/sequential/residual_stack_._0._._3/conv1d_7/conv1d/strided_slice/stack_2"], "attr": {"ellipsis_mask": {"i": "0"}, "shrink_axis_mask": {"i": "1"}, "new_axis_mask": {"i": "0"}, "T": {"type": "DT_INT32"}, "Index": {"type": "DT_INT32"}, "begin_mask": {"i": "0"}, "end_mask": {"i": "0"}}}, {"name": "ConstantFolding/StatefulPartitionedCall/sequential/residual_stack_._0._._3/conv1d_7/conv1d/stack_const_axis", "op": "Const", "input": ["^StatefulPartitionedCall/sequential/residual_stack_._0._._3/conv1d_7/conv1d/strided_slice"], "attr": {"value": {"tensor": {"dtype": "DT_INT32", "tensorShape": {}}}, "dtype": {"type": "DT_INT32"}}}, {"name": "StatefulPartitionedCall/sequential/residual_stack_._0._._3/conv1d_7/conv1d/stack", "op": "ExpandDims", "input": ["StatefulPartitionedCall/sequential/residual_stack_._0._._3/conv1d_7/conv1d/strided_slice", "ConstantFolding/StatefulPartitionedCall/sequential/residual_stack_._0._._3/conv1d_7/conv1d/stack_const_axis"], "attr": {"T": {"type": "DT_INT32"}, "Tdim": {"type": "DT_INT32"}}}, {"name": "StatefulPartitionedCall/sequential/residual_stack_._0._._3/conv1d_7/conv1d/required_space_to_batch_paddings/mod", "op": "FloorMod", "input": ["StatefulPartitionedCall/sequential/residual_stack_._0._._3/conv1d_7/conv1d/stack", "StatefulPartitionedCall/sequential/residual_stack_._0._._3/conv1d_7/conv1d/dilation_rate"], "attr": {"T": {"type": "DT_INT32"}}}, {"name": "StatefulPartitionedCall/sequential/residual_stack_._0._._3/conv1d_7/conv1d/required_space_to_batch_paddings/sub", "op": "Sub", "input": ["StatefulPartitionedCall/sequential/residual_stack_._0._._3/conv1d_7/conv1d/dilation_rate", "StatefulPartitionedCall/sequential/residual_stack_._0._._3/conv1d_7/conv1d/required_space_to_batch_paddings/mod"], "attr": {"T": {"type": "DT_INT32"}}}, {"name": "StatefulPartitionedCall/sequential/residual_stack_._0._._3/conv1d_7/conv1d/required_space_to_batch_paddings/mod_1", "op": "FloorMod", "input": ["StatefulPartitionedCall/sequential/residual_stack_._0._._3/conv1d_7/conv1d/required_space_to_batch_paddings/sub", "StatefulPartitionedCall/sequential/residual_stack_._0._._3/conv1d_7/conv1d/dilation_rate"], "attr": {"T": {"type": "DT_INT32"}}}, {"name": "StatefulPartitionedCall/sequential/residual_stack_._0._._3/conv1d_7/conv1d/required_space_to_batch_paddings/strided_slice_3", "op": "StridedSlice", "input": ["StatefulPartitionedCall/sequential/residual_stack_._0._._3/conv1d_7/conv1d/required_space_to_batch_paddings/mod_1", "StatefulPartitionedCall/sequential/residual_stack_._0._._3/conv1d_7/conv1d/required_space_to_batch_paddings/strided_slice_3/stack", "StatefulPartitionedCall/sequential/residual_stack_._0._._3/conv1d_7/conv1d/required_space_to_batch_paddings/strided_slice_3/stack_1", "StatefulPartitionedCall/sequential/residual_stack_._0._._3/conv1d_7/conv1d/required_space_to_batch_paddings/strided_slice_3/stack_2"], "attr": {"new_axis_mask": {"i": "0"}, "Index": {"type": "DT_INT32"}, "shrink_axis_mask": {"i": "1"}, "ellipsis_mask": {"i": "0"}, "begin_mask": {"i": "0"}, "T": {"type": "DT_INT32"}, "end_mask": {"i": "0"}}}, {"name": "StatefulPartitionedCall/sequential/residual_stack_._0._._3/conv1d_7/conv1d/required_space_to_batch_paddings/strided_slice_4", "op": "StridedSlice", "input": ["StatefulPartitionedCall/sequential/residual_stack_._0._._3/conv1d_7/conv1d/required_space_to_batch_paddings/mod_1", "StatefulPartitionedCall/sequential/residual_stack_._0._._3/conv1d_7/conv1d/required_space_to_batch_paddings/strided_slice_4/stack", "StatefulPartitionedCall/sequential/residual_stack_._0._._3/conv1d_7/conv1d/required_space_to_batch_paddings/strided_slice_4/stack_1", "StatefulPartitionedCall/sequential/residual_stack_._0._._3/conv1d_7/conv1d/required_space_to_batch_paddings/strided_slice_4/stack_2"], "attr": {"T": {"type": "DT_INT32"}, "Index": {"type": "DT_INT32"}, "begin_mask": {"i": "0"}, "new_axis_mask": {"i": "0"}, "ellipsis_mask": {"i": "0"}, "end_mask": {"i": "0"}, "shrink_axis_mask": {"i": "1"}}}, {"name": "StatefulPartitionedCall/sequential/residual_stack_._0._._3/conv1d_7/conv1d/required_space_to_batch_paddings/paddings/0", "op": "Pack", "input": ["StatefulPartitionedCall/sequential/residual_stack_._0._._3/conv1d_7/conv1d/required_space_to_batch_paddings/strided_slice_2", "StatefulPartitionedCall/sequential/residual_stack_._0._._3/conv1d_7/conv1d/required_space_to_batch_paddings/strided_slice_3"], "attr": {"T": {"type": "DT_INT32"}, "axis": {"i": "0"}, "N": {"i": "2"}}}, {"name": "StatefulPartitionedCall/sequential/residual_stack_._0._._3/conv1d_7/conv1d/required_space_to_batch_paddings/crops/0", "op": "Pack", "input": ["StatefulPartitionedCall/sequential/residual_stack_._0._._3/conv1d_7/conv1d/required_space_to_batch_paddings/crops/0/0", "StatefulPartitionedCall/sequential/residual_stack_._0._._3/conv1d_7/conv1d/required_space_to_batch_paddings/strided_slice_4"], "attr": {"T": {"type": "DT_INT32"}, "N": {"i": "2"}, "axis": {"i": "0"}}}, {"name": "ConstantFolding/StatefulPartitionedCall/sequential/residual_stack_._0._._3/conv1d_7/conv1d/required_space_to_batch_paddings/paddings_const_axis", "op": "Const", "input": ["^StatefulPartitionedCall/sequential/residual_stack_._0._._3/conv1d_7/conv1d/required_space_to_batch_paddings/paddings/0"], "attr": {"dtype": {"type": "DT_INT32"}, "value": {"tensor": {"dtype": "DT_INT32", "tensorShape": {}}}}}, {"name": "ConstantFolding/StatefulPartitionedCall/sequential/residual_stack_._0._._3/conv1d_7/conv1d/required_space_to_batch_paddings/crops_const_axis", "op": "Const", "input": ["^StatefulPartitionedCall/sequential/residual_stack_._0._._3/conv1d_7/conv1d/required_space_to_batch_paddings/crops/0"], "attr": {"dtype": {"type": "DT_INT32"}, "value": {"tensor": {"dtype": "DT_INT32", "tensorShape": {}}}}}, {"name": "StatefulPartitionedCall/sequential/residual_stack_._0._._3/conv1d_7/conv1d/required_space_to_batch_paddings/paddings", "op": "ExpandDims", "input": ["StatefulPartitionedCall/sequential/residual_stack_._0._._3/conv1d_7/conv1d/required_space_to_batch_paddings/paddings/0", "ConstantFolding/StatefulPartitionedCall/sequential/residual_stack_._0._._3/conv1d_7/conv1d/required_space_to_batch_paddings/paddings_const_axis"], "attr": {"T": {"type": "DT_INT32"}, "Tdim": {"type": "DT_INT32"}}}, {"name": "StatefulPartitionedCall/sequential/residual_stack_._0._._3/conv1d_7/conv1d/required_space_to_batch_paddings/crops", "op": "ExpandDims", "input": ["StatefulPartitionedCall/sequential/residual_stack_._0._._3/conv1d_7/conv1d/required_space_to_batch_paddings/crops/0", "ConstantFolding/StatefulPartitionedCall/sequential/residual_stack_._0._._3/conv1d_7/conv1d/required_space_to_batch_paddings/crops_const_axis"], "attr": {"T": {"type": "DT_INT32"}, "Tdim": {"type": "DT_INT32"}}}, {"name": "StatefulPartitionedCall/sequential/residual_stack_._0._._3/conv1d_7/conv1d/SpaceToBatchND", "op": "SpaceToBatchND", "input": ["StatefulPartitionedCall/sequential/residual_stack_._0._._3/tf_reflection_pad1d_3/MirrorPad", "StatefulPartitionedCall/sequential/residual_stack_._0._._3/conv1d_7/conv1d/SpaceToBatchND/block_shape", "StatefulPartitionedCall/sequential/residual_stack_._0._._3/conv1d_7/conv1d/required_space_to_batch_paddings/paddings"], "attr": {"Tpaddings": {"type": "DT_INT32"}, "Tblock_shape": {"type": "DT_INT32"}, "T": {"type": "DT_FLOAT"}}}, {"name": "StatefulPartitionedCall/sequential/residual_stack_._0._._3/conv1d_7/conv1d/ExpandDims", "op": "ExpandDims", "input": ["StatefulPartitionedCall/sequential/residual_stack_._0._._3/conv1d_7/conv1d/SpaceToBatchND", "StatefulPartitionedCall/sequential/residual_stack_._0._._3/conv1d_7/conv1d/ExpandDims/dim"], "attr": {"Tdim": {"type": "DT_INT32"}, "T": {"type": "DT_FLOAT"}}}, {"name": "StatefulPartitionedCall/sequential/residual_stack_._0._._3/conv1d_7/conv1d", "op": "Conv2D", "input": ["StatefulPartitionedCall/sequential/residual_stack_._0._._3/conv1d_7/conv1d/ExpandDims", "StatefulPartitionedCall/sequential/residual_stack_._0._._3/conv1d_7/conv1d/ExpandDims_1"], "device": "/device:CPU:0", "attr": {"use_cudnn_on_gpu": {"b": true}, "strides": {"list": {"i": ["1", "1", "1", "1"]}}, "data_format": {"s": "TkhXQw=="}, "padding": {"s": "VkFMSUQ="}, "T": {"type": "DT_FLOAT"}, "explicit_paddings": {"list": {}}, "dilations": {"list": {"i": ["1", "1", "1", "1"]}}}}, {"name": "StatefulPartitionedCall/sequential/residual_stack_._0._._3/conv1d_7/conv1d/Squeeze", "op": "Squeeze", "input": ["StatefulPartitionedCall/sequential/residual_stack_._0._._3/conv1d_7/conv1d"], "attr": {"T": {"type": "DT_FLOAT"}, "squeeze_dims": {"list": {"i": ["-3"]}}}}, {"name": "StatefulPartitionedCall/sequential/residual_stack_._0._._3/conv1d_7/conv1d/BatchToSpaceND", "op": "BatchToSpaceND", "input": ["StatefulPartitionedCall/sequential/residual_stack_._0._._3/conv1d_7/conv1d/Squeeze", "StatefulPartitionedCall/sequential/residual_stack_._0._._3/conv1d_7/conv1d/BatchToSpaceND/block_shape", "StatefulPartitionedCall/sequential/residual_stack_._0._._3/conv1d_7/conv1d/required_space_to_batch_paddings/crops"], "attr": {"T": {"type": "DT_FLOAT"}, "Tblock_shape": {"type": "DT_INT32"}, "Tcrops": {"type": "DT_INT32"}}}, {"name": "StatefulPartitionedCall/sequential/residual_stack_._0._._3/conv1d_7/BiasAdd", "op": "BiasAdd", "input": ["StatefulPartitionedCall/sequential/residual_stack_._0._._3/conv1d_7/conv1d/BatchToSpaceND", "unknown_22"], "attr": {"data_format": {"s": "TkhXQw=="}, "T": {"type": "DT_FLOAT"}}}, {"name": "StatefulPartitionedCall/sequential/residual_stack_._0._._3/leaky_re_lu_8/LeakyRelu", "op": "LeakyRelu", "input": ["StatefulPartitionedCall/sequential/residual_stack_._0._._3/conv1d_7/BiasAdd"], "attr": {"alpha": {"f": 0.2}, "T": {"type": "DT_FLOAT"}}}, {"name": "StatefulPartitionedCall/sequential/residual_stack_._0._._3/conv1d_8/conv1d/ExpandDims", "op": "ExpandDims", "input": ["StatefulPartitionedCall/sequential/residual_stack_._0._._3/leaky_re_lu_8/LeakyRelu", "StatefulPartitionedCall/sequential/residual_stack_._0._._3/conv1d_8/conv1d/ExpandDims/dim"], "attr": {"T": {"type": "DT_FLOAT"}, "Tdim": {"type": "DT_INT32"}}}, {"name": "StatefulPartitionedCall/sequential/residual_stack_._0._._3/conv1d_8/conv1d", "op": "_FusedConv2D", "input": ["StatefulPartitionedCall/sequential/residual_stack_._0._._3/conv1d_8/conv1d/ExpandDims", "StatefulPartitionedCall/sequential/residual_stack_._0._._3/conv1d_8/conv1d/ExpandDims_1", "unknown_24"], "device": "/device:CPU:0", "attr": {"epsilon": {"f": 0.0}, "fused_ops": {"list": {"s": ["Qmlhc0FkZA=="]}}, "dilations": {"list": {"i": ["1", "1", "1", "1"]}}, "data_format": {"s": "TkhXQw=="}, "T": {"type": "DT_FLOAT"}, "strides": {"list": {"i": ["1", "1", "1", "1"]}}, "explicit_paddings": {"list": {}}, "use_cudnn_on_gpu": {"b": true}, "padding": {"s": "VkFMSUQ="}, "num_args": {"i": "1"}}}, {"name": "StatefulPartitionedCall/sequential/residual_stack_._0._._3/conv1d_8/BiasAdd", "op": "Squeeze", "input": ["StatefulPartitionedCall/sequential/residual_stack_._0._._3/conv1d_8/conv1d"], "attr": {"T": {"type": "DT_FLOAT"}, "squeeze_dims": {"list": {"i": ["-3"]}}}}, {"name": "StatefulPartitionedCall/sequential/residual_stack_._0._._3/add", "op": "AddV2", "input": ["StatefulPartitionedCall/sequential/residual_stack_._0._._3/shortcut/BiasAdd", "StatefulPartitionedCall/sequential/residual_stack_._0._._3/conv1d_8/BiasAdd"], "attr": {"T": {"type": "DT_FLOAT"}}}, {"name": "StatefulPartitionedCall/sequential/leaky_re_lu_9/LeakyRelu", "op": "LeakyRelu", "input": ["StatefulPartitionedCall/sequential/residual_stack_._0._._3/add"], "attr": {"T": {"type": "DT_FLOAT"}, "alpha": {"f": 0.2}}}, {"name": "StatefulPartitionedCall/sequential/conv_transpose_._1/ExpandDims", "op": "ExpandDims", "input": ["StatefulPartitionedCall/sequential/leaky_re_lu_9/LeakyRelu", "StatefulPartitionedCall/sequential/conv_transpose_._1/ExpandDims/dim"], "attr": {"Tdim": {"type": "DT_INT32"}, "T": {"type": "DT_FLOAT"}}}, {"name": "StatefulPartitionedCall/sequential/conv_transpose_._1/conv2d_transpose_1/Shape", "op": "Shape", "input": ["StatefulPartitionedCall/sequential/conv_transpose_._1/ExpandDims"], "attr": {"out_type": {"type": "DT_INT32"}, "T": {"type": "DT_FLOAT"}}}, {"name": "StatefulPartitionedCall/sequential/conv_transpose_._1/conv2d_transpose_1/strided_slice", "op": "StridedSlice", "input": ["StatefulPartitionedCall/sequential/conv_transpose_._1/conv2d_transpose_1/Shape", "StatefulPartitionedCall/sequential/conv_transpose_._1/conv2d_transpose_1/strided_slice/stack", "StatefulPartitionedCall/sequential/conv_transpose_._1/conv2d_transpose_1/strided_slice/stack_1", "StatefulPartitionedCall/sequential/conv_transpose_._1/conv2d_transpose_1/strided_slice/stack_2"], "attr": {"end_mask": {"i": "0"}, "begin_mask": {"i": "0"}, "new_axis_mask": {"i": "0"}, "Index": {"type": "DT_INT32"}, "shrink_axis_mask": {"i": "1"}, "T": {"type": "DT_INT32"}, "ellipsis_mask": {"i": "0"}}}, {"name": "StatefulPartitionedCall/sequential/conv_transpose_._1/conv2d_transpose_1/strided_slice_1", "op": "StridedSlice", "input": ["StatefulPartitionedCall/sequential/conv_transpose_._1/conv2d_transpose_1/Shape", "StatefulPartitionedCall/sequential/conv_transpose_._1/conv2d_transpose_1/strided_slice_1/stack", "StatefulPartitionedCall/sequential/conv_transpose_._1/conv2d_transpose_1/strided_slice_1/stack_1", "StatefulPartitionedCall/sequential/conv_transpose_._1/conv2d_transpose_1/strided_slice_1/stack_2"], "attr": {"Index": {"type": "DT_INT32"}, "shrink_axis_mask": {"i": "1"}, "begin_mask": {"i": "0"}, "new_axis_mask": {"i": "0"}, "T": {"type": "DT_INT32"}, "ellipsis_mask": {"i": "0"}, "end_mask": {"i": "0"}}}, {"name": "StatefulPartitionedCall/sequential/conv_transpose_._1/conv2d_transpose_1/mul", "op": "Mul", "input": ["StatefulPartitionedCall/sequential/conv_transpose_._1/conv2d_transpose_1/strided_slice_1", "StatefulPartitionedCall/sequential/conv_transpose_._1/conv2d_transpose_1/mul/y"], "attr": {"T": {"type": "DT_INT32"}}}, {"name": "StatefulPartitionedCall/sequential/conv_transpose_._1/conv2d_transpose_1/stack", "op": "Pack", "input": ["StatefulPartitionedCall/sequential/conv_transpose_._1/conv2d_transpose_1/strided_slice", "StatefulPartitionedCall/sequential/conv_transpose_._1/conv2d_transpose_1/mul", "StatefulPartitionedCall/sequential/conv_transpose_._1/conv2d_transpose_1/stack/2", "StatefulPartitionedCall/sequential/conv_transpose_._1/conv2d_transpose_1/stack/3"], "attr": {"axis": {"i": "0"}, "T": {"type": "DT_INT32"}, "N": {"i": "4"}}}, {"name": "StatefulPartitionedCall/sequential/conv_transpose_._1/conv2d_transpose_1/conv2d_transpose", "op": "Conv2DBackpropInput", "input": ["StatefulPartitionedCall/sequential/conv_transpose_._1/conv2d_transpose_1/stack", "unknown_27", "StatefulPartitionedCall/sequential/conv_transpose_._1/ExpandDims"], "attr": {"dilations": {"list": {"i": ["1", "1", "1", "1"]}}, "T": {"type": "DT_FLOAT"}, "padding": {"s": "U0FNRQ=="}, "data_format": {"s": "TkhXQw=="}, "explicit_paddings": {"list": {}}, "strides": {"list": {"i": ["1", "4", "1", "1"]}}, "use_cudnn_on_gpu": {"b": true}}}, {"name": "StatefulPartitionedCall/sequential/conv_transpose_._1/conv2d_transpose_1/BiasAdd", "op": "BiasAdd", "input": ["StatefulPartitionedCall/sequential/conv_transpose_._1/conv2d_transpose_1/conv2d_transpose", "unknown_28"], "attr": {"data_format": {"s": "TkhXQw=="}, "T": {"type": "DT_FLOAT"}}}, {"name": "StatefulPartitionedCall/sequential/conv_transpose_._1/Squeeze", "op": "Squeeze", "input": ["StatefulPartitionedCall/sequential/conv_transpose_._1/conv2d_transpose_1/BiasAdd"], "attr": {"squeeze_dims": {"list": {"i": ["2"]}}, "T": {"type": "DT_FLOAT"}}}, {"name": "StatefulPartitionedCall/sequential/residual_stack_._1._._0/shortcut/conv1d/ExpandDims", "op": "ExpandDims", "input": ["StatefulPartitionedCall/sequential/conv_transpose_._1/Squeeze", "StatefulPartitionedCall/sequential/residual_stack_._1._._0/shortcut/conv1d/ExpandDims/dim"], "attr": {"Tdim": {"type": "DT_INT32"}, "T": {"type": "DT_FLOAT"}}}, {"name": "StatefulPartitionedCall/sequential/residual_stack_._1._._0/leaky_re_lu_10/LeakyRelu", "op": "LeakyRelu", "input": ["StatefulPartitionedCall/sequential/conv_transpose_._1/Squeeze"], "attr": {"alpha": {"f": 0.2}, "T": {"type": "DT_FLOAT"}}}, {"name": "StatefulPartitionedCall/sequential/residual_stack_._1._._0/shortcut/conv1d", "op": "_FusedConv2D", "input": ["StatefulPartitionedCall/sequential/residual_stack_._1._._0/shortcut/conv1d/ExpandDims", "StatefulPartitionedCall/sequential/residual_stack_._1._._0/shortcut/conv1d/ExpandDims_1", "unknown_34"], "device": "/device:CPU:0", "attr": {"dilations": {"list": {"i": ["1", "1", "1", "1"]}}, "explicit_paddings": {"list": {}}, "fused_ops": {"list": {"s": ["Qmlhc0FkZA=="]}}, "T": {"type": "DT_FLOAT"}, "num_args": {"i": "1"}, "padding": {"s": "VkFMSUQ="}, "data_format": {"s": "TkhXQw=="}, "epsilon": {"f": 0.0}, "strides": {"list": {"i": ["1", "1", "1", "1"]}}, "use_cudnn_on_gpu": {"b": true}}}, {"name": "StatefulPartitionedCall/sequential/residual_stack_._1._._0/tf_reflection_pad1d_4/MirrorPad", "op": "MirrorPad", "input": ["StatefulPartitionedCall/sequential/residual_stack_._1._._0/leaky_re_lu_10/LeakyRelu", "StatefulPartitionedCall/sequential/residual_stack_._1._._0/tf_reflection_pad1d_4/MirrorPad/paddings"], "attr": {"Tpaddings": {"type": "DT_INT32"}, "mode": {"s": "UkVGTEVDVA=="}, "T": {"type": "DT_FLOAT"}}}, {"name": "StatefulPartitionedCall/sequential/residual_stack_._1._._0/shortcut/BiasAdd", "op": "Squeeze", "input": ["StatefulPartitionedCall/sequential/residual_stack_._1._._0/shortcut/conv1d"], "attr": {"squeeze_dims": {"list": {"i": ["-3"]}}, "T": {"type": "DT_FLOAT"}}}, {"name": "StatefulPartitionedCall/sequential/residual_stack_._1._._0/conv1d_9/conv1d/ExpandDims", "op": "ExpandDims", "input": ["StatefulPartitionedCall/sequential/residual_stack_._1._._0/tf_reflection_pad1d_4/MirrorPad", "StatefulPartitionedCall/sequential/residual_stack_._1._._0/conv1d_9/conv1d/ExpandDims/dim"], "attr": {"T": {"type": "DT_FLOAT"}, "Tdim": {"type": "DT_INT32"}}}, {"name": "StatefulPartitionedCall/sequential/residual_stack_._1._._0/conv1d_9/conv1d", "op": "_FusedConv2D", "input": ["StatefulPartitionedCall/sequential/residual_stack_._1._._0/conv1d_9/conv1d/ExpandDims", "StatefulPartitionedCall/sequential/residual_stack_._1._._0/conv1d_9/conv1d/ExpandDims_1", "unknown_30"], "device": "/device:CPU:0", "attr": {"T": {"type": "DT_FLOAT"}, "dilations": {"list": {"i": ["1", "1", "1", "1"]}}, "padding": {"s": "VkFMSUQ="}, "explicit_paddings": {"list": {}}, "strides": {"list": {"i": ["1", "1", "1", "1"]}}, "epsilon": {"f": 0.0}, "use_cudnn_on_gpu": {"b": true}, "num_args": {"i": "1"}, "data_format": {"s": "TkhXQw=="}, "fused_ops": {"list": {"s": ["Qmlhc0FkZA=="]}}}}, {"name": "StatefulPartitionedCall/sequential/residual_stack_._1._._0/conv1d_9/BiasAdd", "op": "Squeeze", "input": ["StatefulPartitionedCall/sequential/residual_stack_._1._._0/conv1d_9/conv1d"], "attr": {"T": {"type": "DT_FLOAT"}, "squeeze_dims": {"list": {"i": ["-3"]}}}}, {"name": "StatefulPartitionedCall/sequential/residual_stack_._1._._0/leaky_re_lu_11/LeakyRelu", "op": "LeakyRelu", "input": ["StatefulPartitionedCall/sequential/residual_stack_._1._._0/conv1d_9/BiasAdd"], "attr": {"T": {"type": "DT_FLOAT"}, "alpha": {"f": 0.2}}}, {"name": "StatefulPartitionedCall/sequential/residual_stack_._1._._0/conv1d_10/conv1d/ExpandDims", "op": "ExpandDims", "input": ["StatefulPartitionedCall/sequential/residual_stack_._1._._0/leaky_re_lu_11/LeakyRelu", "StatefulPartitionedCall/sequential/residual_stack_._1._._0/conv1d_10/conv1d/ExpandDims/dim"], "attr": {"T": {"type": "DT_FLOAT"}, "Tdim": {"type": "DT_INT32"}}}, {"name": "StatefulPartitionedCall/sequential/residual_stack_._1._._0/conv1d_10/conv1d", "op": "_FusedConv2D", "input": ["StatefulPartitionedCall/sequential/residual_stack_._1._._0/conv1d_10/conv1d/ExpandDims", "StatefulPartitionedCall/sequential/residual_stack_._1._._0/conv1d_10/conv1d/ExpandDims_1", "unknown_32"], "device": "/device:CPU:0", "attr": {"data_format": {"s": "TkhXQw=="}, "num_args": {"i": "1"}, "padding": {"s": "VkFMSUQ="}, "strides": {"list": {"i": ["1", "1", "1", "1"]}}, "use_cudnn_on_gpu": {"b": true}, "epsilon": {"f": 0.0}, "fused_ops": {"list": {"s": ["Qmlhc0FkZA=="]}}, "explicit_paddings": {"list": {}}, "dilations": {"list": {"i": ["1", "1", "1", "1"]}}, "T": {"type": "DT_FLOAT"}}}, {"name": "StatefulPartitionedCall/sequential/residual_stack_._1._._0/conv1d_10/BiasAdd", "op": "Squeeze", "input": ["StatefulPartitionedCall/sequential/residual_stack_._1._._0/conv1d_10/conv1d"], "attr": {"squeeze_dims": {"list": {"i": ["-3"]}}, "T": {"type": "DT_FLOAT"}}}, {"name": "StatefulPartitionedCall/sequential/residual_stack_._1._._0/add", "op": "AddV2", "input": ["StatefulPartitionedCall/sequential/residual_stack_._1._._0/shortcut/BiasAdd", "StatefulPartitionedCall/sequential/residual_stack_._1._._0/conv1d_10/BiasAdd"], "attr": {"T": {"type": "DT_FLOAT"}}}, {"name": "StatefulPartitionedCall/sequential/residual_stack_._1._._1/shortcut/conv1d/ExpandDims", "op": "ExpandDims", "input": ["StatefulPartitionedCall/sequential/residual_stack_._1._._0/add", "StatefulPartitionedCall/sequential/residual_stack_._1._._1/shortcut/conv1d/ExpandDims/dim"], "attr": {"T": {"type": "DT_FLOAT"}, "Tdim": {"type": "DT_INT32"}}}, {"name": "StatefulPartitionedCall/sequential/residual_stack_._1._._1/leaky_re_lu_12/LeakyRelu", "op": "LeakyRelu", "input": ["StatefulPartitionedCall/sequential/residual_stack_._1._._0/add"], "attr": {"alpha": {"f": 0.2}, "T": {"type": "DT_FLOAT"}}}, {"name": "StatefulPartitionedCall/sequential/residual_stack_._1._._1/shortcut/conv1d", "op": "_FusedConv2D", "input": ["StatefulPartitionedCall/sequential/residual_stack_._1._._1/shortcut/conv1d/ExpandDims", "StatefulPartitionedCall/sequential/residual_stack_._1._._1/shortcut/conv1d/ExpandDims_1", "unknown_40"], "device": "/device:CPU:0", "attr": {"explicit_paddings": {"list": {}}, "strides": {"list": {"i": ["1", "1", "1", "1"]}}, "num_args": {"i": "1"}, "epsilon": {"f": 0.0}, "fused_ops": {"list": {"s": ["Qmlhc0FkZA=="]}}, "padding": {"s": "VkFMSUQ="}, "dilations": {"list": {"i": ["1", "1", "1", "1"]}}, "data_format": {"s": "TkhXQw=="}, "T": {"type": "DT_FLOAT"}, "use_cudnn_on_gpu": {"b": true}}}, {"name": "StatefulPartitionedCall/sequential/residual_stack_._1._._1/tf_reflection_pad1d_5/MirrorPad", "op": "MirrorPad", "input": ["StatefulPartitionedCall/sequential/residual_stack_._1._._1/leaky_re_lu_12/LeakyRelu", "StatefulPartitionedCall/sequential/residual_stack_._1._._1/tf_reflection_pad1d_5/MirrorPad/paddings"], "attr": {"Tpaddings": {"type": "DT_INT32"}, "T": {"type": "DT_FLOAT"}, "mode": {"s": "UkVGTEVDVA=="}}}, {"name": "StatefulPartitionedCall/sequential/residual_stack_._1._._1/shortcut/BiasAdd", "op": "Squeeze", "input": ["StatefulPartitionedCall/sequential/residual_stack_._1._._1/shortcut/conv1d"], "attr": {"T": {"type": "DT_FLOAT"}, "squeeze_dims": {"list": {"i": ["-3"]}}}}, {"name": "StatefulPartitionedCall/sequential/residual_stack_._1._._1/conv1d_11/conv1d/Shape", "op": "Shape", "input": ["StatefulPartitionedCall/sequential/residual_stack_._1._._1/tf_reflection_pad1d_5/MirrorPad"], "attr": {"out_type": {"type": "DT_INT32"}, "T": {"type": "DT_FLOAT"}}}, {"name": "StatefulPartitionedCall/sequential/residual_stack_._1._._1/conv1d_11/conv1d/strided_slice", "op": "StridedSlice", "input": ["StatefulPartitionedCall/sequential/residual_stack_._1._._1/conv1d_11/conv1d/Shape", "StatefulPartitionedCall/sequential/residual_stack_._1._._1/conv1d_11/conv1d/strided_slice/stack", "StatefulPartitionedCall/sequential/residual_stack_._1._._1/conv1d_11/conv1d/strided_slice/stack_1", "StatefulPartitionedCall/sequential/residual_stack_._1._._1/conv1d_11/conv1d/strided_slice/stack_2"], "attr": {"T": {"type": "DT_INT32"}, "begin_mask": {"i": "0"}, "ellipsis_mask": {"i": "0"}, "Index": {"type": "DT_INT32"}, "end_mask": {"i": "0"}, "shrink_axis_mask": {"i": "1"}, "new_axis_mask": {"i": "0"}}}, {"name": "ConstantFolding/StatefulPartitionedCall/sequential/residual_stack_._1._._1/conv1d_11/conv1d/stack_const_axis", "op": "Const", "input": ["^StatefulPartitionedCall/sequential/residual_stack_._1._._1/conv1d_11/conv1d/strided_slice"], "attr": {"dtype": {"type": "DT_INT32"}, "value": {"tensor": {"dtype": "DT_INT32", "tensorShape": {}}}}}, {"name": "StatefulPartitionedCall/sequential/residual_stack_._1._._1/conv1d_11/conv1d/stack", "op": "ExpandDims", "input": ["StatefulPartitionedCall/sequential/residual_stack_._1._._1/conv1d_11/conv1d/strided_slice", "ConstantFolding/StatefulPartitionedCall/sequential/residual_stack_._1._._1/conv1d_11/conv1d/stack_const_axis"], "attr": {"T": {"type": "DT_INT32"}, "Tdim": {"type": "DT_INT32"}}}, {"name": "StatefulPartitionedCall/sequential/residual_stack_._1._._1/conv1d_11/conv1d/required_space_to_batch_paddings/mod", "op": "FloorMod", "input": ["StatefulPartitionedCall/sequential/residual_stack_._1._._1/conv1d_11/conv1d/stack", "StatefulPartitionedCall/sequential/residual_stack_._1._._1/conv1d_11/conv1d/dilation_rate"], "attr": {"T": {"type": "DT_INT32"}}}, {"name": "StatefulPartitionedCall/sequential/residual_stack_._1._._1/conv1d_11/conv1d/required_space_to_batch_paddings/sub", "op": "Sub", "input": ["StatefulPartitionedCall/sequential/residual_stack_._1._._1/conv1d_11/conv1d/dilation_rate", "StatefulPartitionedCall/sequential/residual_stack_._1._._1/conv1d_11/conv1d/required_space_to_batch_paddings/mod"], "attr": {"T": {"type": "DT_INT32"}}}, {"name": "StatefulPartitionedCall/sequential/residual_stack_._1._._1/conv1d_11/conv1d/required_space_to_batch_paddings/mod_1", "op": "FloorMod", "input": ["StatefulPartitionedCall/sequential/residual_stack_._1._._1/conv1d_11/conv1d/required_space_to_batch_paddings/sub", "StatefulPartitionedCall/sequential/residual_stack_._1._._1/conv1d_11/conv1d/dilation_rate"], "attr": {"T": {"type": "DT_INT32"}}}, {"name": "StatefulPartitionedCall/sequential/residual_stack_._1._._1/conv1d_11/conv1d/required_space_to_batch_paddings/strided_slice_3", "op": "StridedSlice", "input": ["StatefulPartitionedCall/sequential/residual_stack_._1._._1/conv1d_11/conv1d/required_space_to_batch_paddings/mod_1", "StatefulPartitionedCall/sequential/residual_stack_._1._._1/conv1d_11/conv1d/required_space_to_batch_paddings/strided_slice_3/stack", "StatefulPartitionedCall/sequential/residual_stack_._1._._1/conv1d_11/conv1d/required_space_to_batch_paddings/strided_slice_3/stack_1", "StatefulPartitionedCall/sequential/residual_stack_._1._._1/conv1d_11/conv1d/required_space_to_batch_paddings/strided_slice_3/stack_2"], "attr": {"shrink_axis_mask": {"i": "1"}, "end_mask": {"i": "0"}, "T": {"type": "DT_INT32"}, "begin_mask": {"i": "0"}, "new_axis_mask": {"i": "0"}, "Index": {"type": "DT_INT32"}, "ellipsis_mask": {"i": "0"}}}, {"name": "StatefulPartitionedCall/sequential/residual_stack_._1._._1/conv1d_11/conv1d/required_space_to_batch_paddings/strided_slice_4", "op": "StridedSlice", "input": ["StatefulPartitionedCall/sequential/residual_stack_._1._._1/conv1d_11/conv1d/required_space_to_batch_paddings/mod_1", "StatefulPartitionedCall/sequential/residual_stack_._1._._1/conv1d_11/conv1d/required_space_to_batch_paddings/strided_slice_4/stack", "StatefulPartitionedCall/sequential/residual_stack_._1._._1/conv1d_11/conv1d/required_space_to_batch_paddings/strided_slice_4/stack_1", "StatefulPartitionedCall/sequential/residual_stack_._1._._1/conv1d_11/conv1d/required_space_to_batch_paddings/strided_slice_4/stack_2"], "attr": {"T": {"type": "DT_INT32"}, "begin_mask": {"i": "0"}, "Index": {"type": "DT_INT32"}, "ellipsis_mask": {"i": "0"}, "shrink_axis_mask": {"i": "1"}, "end_mask": {"i": "0"}, "new_axis_mask": {"i": "0"}}}, {"name": "StatefulPartitionedCall/sequential/residual_stack_._1._._1/conv1d_11/conv1d/required_space_to_batch_paddings/paddings/0", "op": "Pack", "input": ["StatefulPartitionedCall/sequential/residual_stack_._1._._1/conv1d_11/conv1d/required_space_to_batch_paddings/strided_slice_2", "StatefulPartitionedCall/sequential/residual_stack_._1._._1/conv1d_11/conv1d/required_space_to_batch_paddings/strided_slice_3"], "attr": {"N": {"i": "2"}, "T": {"type": "DT_INT32"}, "axis": {"i": "0"}}}, {"name": "StatefulPartitionedCall/sequential/residual_stack_._1._._1/conv1d_11/conv1d/required_space_to_batch_paddings/crops/0", "op": "Pack", "input": ["StatefulPartitionedCall/sequential/residual_stack_._1._._1/conv1d_11/conv1d/required_space_to_batch_paddings/crops/0/0", "StatefulPartitionedCall/sequential/residual_stack_._1._._1/conv1d_11/conv1d/required_space_to_batch_paddings/strided_slice_4"], "attr": {"axis": {"i": "0"}, "T": {"type": "DT_INT32"}, "N": {"i": "2"}}}, {"name": "ConstantFolding/StatefulPartitionedCall/sequential/residual_stack_._1._._1/conv1d_11/conv1d/required_space_to_batch_paddings/paddings_const_axis", "op": "Const", "input": ["^StatefulPartitionedCall/sequential/residual_stack_._1._._1/conv1d_11/conv1d/required_space_to_batch_paddings/paddings/0"], "attr": {"value": {"tensor": {"dtype": "DT_INT32", "tensorShape": {}}}, "dtype": {"type": "DT_INT32"}}}, {"name": "ConstantFolding/StatefulPartitionedCall/sequential/residual_stack_._1._._1/conv1d_11/conv1d/required_space_to_batch_paddings/crops_const_axis", "op": "Const", "input": ["^StatefulPartitionedCall/sequential/residual_stack_._1._._1/conv1d_11/conv1d/required_space_to_batch_paddings/crops/0"], "attr": {"dtype": {"type": "DT_INT32"}, "value": {"tensor": {"dtype": "DT_INT32", "tensorShape": {}}}}}, {"name": "StatefulPartitionedCall/sequential/residual_stack_._1._._1/conv1d_11/conv1d/required_space_to_batch_paddings/paddings", "op": "ExpandDims", "input": ["StatefulPartitionedCall/sequential/residual_stack_._1._._1/conv1d_11/conv1d/required_space_to_batch_paddings/paddings/0", "ConstantFolding/StatefulPartitionedCall/sequential/residual_stack_._1._._1/conv1d_11/conv1d/required_space_to_batch_paddings/paddings_const_axis"], "attr": {"Tdim": {"type": "DT_INT32"}, "T": {"type": "DT_INT32"}}}, {"name": "StatefulPartitionedCall/sequential/residual_stack_._1._._1/conv1d_11/conv1d/required_space_to_batch_paddings/crops", "op": "ExpandDims", "input": ["StatefulPartitionedCall/sequential/residual_stack_._1._._1/conv1d_11/conv1d/required_space_to_batch_paddings/crops/0", "ConstantFolding/StatefulPartitionedCall/sequential/residual_stack_._1._._1/conv1d_11/conv1d/required_space_to_batch_paddings/crops_const_axis"], "attr": {"Tdim": {"type": "DT_INT32"}, "T": {"type": "DT_INT32"}}}, {"name": "StatefulPartitionedCall/sequential/residual_stack_._1._._1/conv1d_11/conv1d/SpaceToBatchND", "op": "SpaceToBatchND", "input": ["StatefulPartitionedCall/sequential/residual_stack_._1._._1/tf_reflection_pad1d_5/MirrorPad", "StatefulPartitionedCall/sequential/residual_stack_._1._._1/conv1d_11/conv1d/SpaceToBatchND/block_shape", "StatefulPartitionedCall/sequential/residual_stack_._1._._1/conv1d_11/conv1d/required_space_to_batch_paddings/paddings"], "attr": {"Tpaddings": {"type": "DT_INT32"}, "Tblock_shape": {"type": "DT_INT32"}, "T": {"type": "DT_FLOAT"}}}, {"name": "StatefulPartitionedCall/sequential/residual_stack_._1._._1/conv1d_11/conv1d/ExpandDims", "op": "ExpandDims", "input": ["StatefulPartitionedCall/sequential/residual_stack_._1._._1/conv1d_11/conv1d/SpaceToBatchND", "StatefulPartitionedCall/sequential/residual_stack_._1._._1/conv1d_11/conv1d/ExpandDims/dim"], "attr": {"T": {"type": "DT_FLOAT"}, "Tdim": {"type": "DT_INT32"}}}, {"name": "StatefulPartitionedCall/sequential/residual_stack_._1._._1/conv1d_11/conv1d", "op": "Conv2D", "input": ["StatefulPartitionedCall/sequential/residual_stack_._1._._1/conv1d_11/conv1d/ExpandDims", "StatefulPartitionedCall/sequential/residual_stack_._1._._1/conv1d_11/conv1d/ExpandDims_1"], "device": "/device:CPU:0", "attr": {"T": {"type": "DT_FLOAT"}, "use_cudnn_on_gpu": {"b": true}, "explicit_paddings": {"list": {}}, "dilations": {"list": {"i": ["1", "1", "1", "1"]}}, "padding": {"s": "VkFMSUQ="}, "strides": {"list": {"i": ["1", "1", "1", "1"]}}, "data_format": {"s": "TkhXQw=="}}}, {"name": "StatefulPartitionedCall/sequential/residual_stack_._1._._1/conv1d_11/conv1d/Squeeze", "op": "Squeeze", "input": ["StatefulPartitionedCall/sequential/residual_stack_._1._._1/conv1d_11/conv1d"], "attr": {"squeeze_dims": {"list": {"i": ["-3"]}}, "T": {"type": "DT_FLOAT"}}}, {"name": "StatefulPartitionedCall/sequential/residual_stack_._1._._1/conv1d_11/conv1d/BatchToSpaceND", "op": "BatchToSpaceND", "input": ["StatefulPartitionedCall/sequential/residual_stack_._1._._1/conv1d_11/conv1d/Squeeze", "StatefulPartitionedCall/sequential/residual_stack_._1._._1/conv1d_11/conv1d/BatchToSpaceND/block_shape", "StatefulPartitionedCall/sequential/residual_stack_._1._._1/conv1d_11/conv1d/required_space_to_batch_paddings/crops"], "attr": {"Tblock_shape": {"type": "DT_INT32"}, "Tcrops": {"type": "DT_INT32"}, "T": {"type": "DT_FLOAT"}}}, {"name": "StatefulPartitionedCall/sequential/residual_stack_._1._._1/conv1d_11/BiasAdd", "op": "BiasAdd", "input": ["StatefulPartitionedCall/sequential/residual_stack_._1._._1/conv1d_11/conv1d/BatchToSpaceND", "unknown_36"], "attr": {"T": {"type": "DT_FLOAT"}, "data_format": {"s": "TkhXQw=="}}}, {"name": "StatefulPartitionedCall/sequential/residual_stack_._1._._1/leaky_re_lu_13/LeakyRelu", "op": "LeakyRelu", "input": ["StatefulPartitionedCall/sequential/residual_stack_._1._._1/con…
d/required_space_to_batch_paddings/strided_slice_2", "shape": [], "dtype": "int32"}, {"name": "StatefulPartitionedCall/sequential/residual_stack_._2._._1/conv1d_19/conv1d/required_space_to_batch_paddings/strided_slice_3/stack", "shape": [1], "dtype": "int32"}, {"name": "StatefulPartitionedCall/sequential/residual_stack_._2._._1/conv1d_19/conv1d/required_space_to_batch_paddings/strided_slice_3/stack_1", "shape": [1], "dtype": "int32"}, {"name": "StatefulPartitionedCall/sequential/residual_stack_._2._._1/conv1d_19/conv1d/required_space_to_batch_paddings/strided_slice_3/stack_2", "shape": [1], "dtype": "int32"}, {"name": "StatefulPartitionedCall/sequential/residual_stack_._2._._1/conv1d_19/conv1d/ExpandDims/dim", "shape": [], "dtype": "int32"}, {"name": "StatefulPartitionedCall/sequential/residual_stack_._2._._1/conv1d_19/conv1d/ExpandDims_1", "shape": [1, 3, 48, 48], "dtype": "float32", "quantization": {"dtype": "uint8", "min": -0.6757975935935974, "scale": 0.0056789713747361125, "original_dtype": "float32"}}, {"name": "StatefulPartitionedCall/sequential/residual_stack_._2._._1/conv1d_19/conv1d/BatchToSpaceND/block_shape", "shape": [1], "dtype": "int32"}, {"name": "StatefulPartitionedCall/sequential/residual_stack_._2._._1/conv1d_19/conv1d/required_space_to_batch_paddings/crops/0/0", "shape": [], "dtype": "int32"}, {"name": "StatefulPartitionedCall/sequential/residual_stack_._2._._0/shortcut/conv1d/ExpandDims/dim", "shape": [], "dtype": "int32"}, {"name": "StatefulPartitionedCall/sequential/residual_stack_._2._._0/shortcut/conv1d/ExpandDims_1", "shape": [1, 1, 48, 48], "dtype": "float32", "quantization": {"dtype": "uint8", "min": -0.26370373660442875, "scale": 0.0020284902815725287, "original_dtype": "float32"}}, {"name": "unknown_60", "shape": [48], "dtype": "float32", "quantization": {"dtype": "uint8", "min": -0.07946556905905405, "scale": 0.0006066073973973592, "original_dtype": "float32"}}, {"name": "StatefulPartitionedCall/sequential/conv_transpose_._2/conv2d_transpose_2/strided_slice/stack", "shape": [1], "dtype": "int32"}, {"name": "StatefulPartitionedCall/sequential/conv_transpose_._2/conv2d_transpose_2/strided_slice/stack_1", "shape": [1], "dtype": "int32"}, {"name": "StatefulPartitionedCall/sequential/conv_transpose_._2/conv2d_transpose_2/strided_slice/stack_2", "shape": [1], "dtype": "int32"}, {"name": "StatefulPartitionedCall/sequential/conv_transpose_._2/conv2d_transpose_2/strided_slice_1/stack", "shape": [1], "dtype": "int32"}, {"name": "StatefulPartitionedCall/sequential/conv_transpose_._2/conv2d_transpose_2/strided_slice_1/stack_1", "shape": [1], "dtype": "int32"}, {"name": "StatefulPartitionedCall/sequential/conv_transpose_._2/conv2d_transpose_2/strided_slice_1/stack_2", "shape": [1], "dtype": "int32"}, {"name": "StatefulPartitionedCall/sequential/conv_transpose_._2/conv2d_transpose_2/mul/y", "shape": [], "dtype": "int32"}, {"name": "StatefulPartitionedCall/sequential/conv_transpose_._2/conv2d_transpose_2/stack/2", "shape": [], "dtype": "int32"}, {"name": "StatefulPartitionedCall/sequential/conv_transpose_._2/conv2d_transpose_2/stack/3", "shape": [], "dtype": "int32"}, {"name": "unknown_53", "shape": [4, 1, 48, 96], "dtype": "float32", "quantization": {"dtype": "uint8", "min": -0.2856647970629673, "scale": 0.002420888110703113, "original_dtype": "float32"}}, {"name": "StatefulPartitionedCall/sequential/residual_stack_._1._._3/shortcut/conv1d/ExpandDims/dim", "shape": [], "dtype": "int32"}, {"name": "StatefulPartitionedCall/sequential/residual_stack_._1._._3/shortcut/conv1d/ExpandDims_1", "shape": [1, 1, 96, 96], "dtype": "float32", "quantization": {"dtype": "uint8", "min": -0.21085178150850184, "scale": 0.0017570981792375154, "original_dtype": "float32"}}, {"name": "unknown_52", "shape": [96], "dtype": "float32", "quantization": {"dtype": "uint8", "min": -0.3849475178064084, "scale": 0.0023472409622341977, "original_dtype": "float32"}}, {"name": "StatefulPartitionedCall/sequential/residual_stack_._1._._3/conv1d_15/conv1d/SpaceToBatchND/block_shape", "shape": [1], "dtype": "int32"}, {"name": "StatefulPartitionedCall/sequential/residual_stack_._1._._3/conv1d_15/conv1d/required_space_to_batch_paddings/strided_slice_2", "shape": [], "dtype": "int32"}, {"name": "StatefulPartitionedCall/sequential/residual_stack_._1._._3/conv1d_15/conv1d/required_space_to_batch_paddings/strided_slice_3/stack", "shape": [1], "dtype": "int32"}, {"name": "StatefulPartitionedCall/sequential/residual_stack_._1._._3/conv1d_15/conv1d/required_space_to_batch_paddings/strided_slice_3/stack_1", "shape": [1], "dtype": "int32"}, {"name": "StatefulPartitionedCall/sequential/residual_stack_._1._._3/conv1d_15/conv1d/required_space_to_batch_paddings/strided_slice_3/stack_2", "shape": [1], "dtype": "int32"}, {"name": "StatefulPartitionedCall/sequential/residual_stack_._1._._3/conv1d_15/conv1d/ExpandDims/dim", "shape": [], "dtype": "int32"}, {"name": "StatefulPartitionedCall/sequential/residual_stack_._1._._3/conv1d_15/conv1d/ExpandDims_1", "shape": [1, 3, 96, 96], "dtype": "float32", "quantization": {"dtype": "uint8", "min": -0.6300818511084014, "scale": 0.004961274418176389, "original_dtype": "float32"}}, {"name": "StatefulPartitionedCall/sequential/residual_stack_._1._._3/conv1d_15/conv1d/BatchToSpaceND/block_shape", "shape": [1], "dtype": "int32"}, {"name": "StatefulPartitionedCall/sequential/residual_stack_._1._._3/conv1d_15/conv1d/required_space_to_batch_paddings/crops/0/0", "shape": [], "dtype": "int32"}, {"name": "StatefulPartitionedCall/sequential/residual_stack_._1._._2/shortcut/conv1d/ExpandDims/dim", "shape": [], "dtype": "int32"}, {"name": "StatefulPartitionedCall/sequential/residual_stack_._1._._2/shortcut/conv1d/ExpandDims_1", "shape": [1, 1, 96, 96], "dtype": "float32", "quantization": {"dtype": "uint8", "min": -0.23262006260600745, "scale": 0.0019224798562479954, "original_dtype": "float32"}}, {"name": "unknown_46", "shape": [96], "dtype": "float32", "quantization": {"dtype": "uint8", "min": -0.36766617520182737, "scale": 0.0040402876395805205, "original_dtype": "float32"}}, {"name": "StatefulPartitionedCall/sequential/residual_stack_._1._._2/conv1d_13/conv1d/SpaceToBatchND/block_shape", "shape": [1], "dtype": "int32"}, {"name": "StatefulPartitionedCall/sequential/residual_stack_._1._._2/conv1d_13/conv1d/required_space_to_batch_paddings/strided_slice_2", "shape": [], "dtype": "int32"}, {"name": "StatefulPartitionedCall/sequential/residual_stack_._1._._2/conv1d_13/conv1d/required_space_to_batch_paddings/strided_slice_3/stack", "shape": [1], "dtype": "int32"}, {"name": "StatefulPartitionedCall/sequential/residual_stack_._1._._2/conv1d_13/conv1d/required_space_to_batch_paddings/strided_slice_3/stack_1", "shape": [1], "dtype": "int32"}, {"name": "StatefulPartitionedCall/sequential/residual_stack_._1._._2/conv1d_13/conv1d/required_space_to_batch_paddings/strided_slice_3/stack_2", "shape": [1], "dtype": "int32"}, {"name": "StatefulPartitionedCall/sequential/residual_stack_._1._._2/conv1d_13/conv1d/ExpandDims/dim", "shape": [], "dtype": "int32"}, {"name": "StatefulPartitionedCall/sequential/residual_stack_._1._._2/conv1d_13/conv1d/ExpandDims_1", "shape": [1, 3, 96, 96], "dtype": "float32", "quantization": {"dtype": "uint8", "min": -0.624265109090244, "scale": 0.0048392644115522795, "original_dtype": "float32"}}, {"name": "StatefulPartitionedCall/sequential/residual_stack_._1._._2/conv1d_13/conv1d/BatchToSpaceND/block_shape", "shape": [1], "dtype": "int32"}, {"name": "StatefulPartitionedCall/sequential/residual_stack_._1._._2/conv1d_13/conv1d/required_space_to_batch_paddings/crops/0/0", "shape": [], "dtype": "int32"}, {"name": "StatefulPartitionedCall/sequential/residual_stack_._1._._1/shortcut/conv1d/ExpandDims/dim", "shape": [], "dtype": "int32"}, {"name": "StatefulPartitionedCall/sequential/residual_stack_._1._._1/shortcut/conv1d/ExpandDims_1", "shape": [1, 1, 96, 96], "dtype": "float32", "quantization": {"dtype": "uint8", "min": -0.2390745431184769, "scale": 0.0020090297741048478, "original_dtype": "float32"}}, {"name": "unknown_40", "shape": [96], "dtype": "float32", "quantization": {"dtype": "uint8", "min": -0.4885776720794977, "scale": 0.004885776720794977, "original_dtype": "float32"}}, {"name": "StatefulPartitionedCall/sequential/residual_stack_._1._._1/conv1d_11/conv1d/SpaceToBatchND/block_shape", "shape": [1], "dtype": "int32"}, {"name": "StatefulPartitionedCall/sequential/residual_stack_._1._._1/conv1d_11/conv1d/required_space_to_batch_paddings/strided_slice_2", "shape": [], "dtype": "int32"}, {"name": "StatefulPartitionedCall/sequential/residual_stack_._1._._1/conv1d_11/conv1d/required_space_to_batch_paddings/strided_slice_3/stack", "shape": [1], "dtype": "int32"}, {"name": "StatefulPartitionedCall/sequential/residual_stack_._1._._1/conv1d_11/conv1d/required_space_to_batch_paddings/strided_slice_3/stack_1", "shape": [1], "dtype": "int32"}, {"name": "StatefulPartitionedCall/sequential/residual_stack_._1._._1/conv1d_11/conv1d/required_space_to_batch_paddings/strided_slice_3/stack_2", "shape": [1], "dtype": "int32"}, {"name": "StatefulPartitionedCall/sequential/residual_stack_._1._._1/conv1d_11/conv1d/ExpandDims/dim", "shape": [], "dtype": "int32"}, {"name": "StatefulPartitionedCall/sequential/residual_stack_._1._._1/conv1d_11/conv1d/ExpandDims_1", "shape": [1, 3, 96, 96], "dtype": "float32", "quantization": {"dtype": "uint8", "min": -0.861717654209511, "scale": 0.005559468736835555, "original_dtype": "float32"}}, {"name": "StatefulPartitionedCall/sequential/residual_stack_._1._._1/conv1d_11/conv1d/BatchToSpaceND/block_shape", "shape": [1], "dtype": "int32"}, {"name": "StatefulPartitionedCall/sequential/residual_stack_._1._._1/conv1d_11/conv1d/required_space_to_batch_paddings/crops/0/0", "shape": [], "dtype": "int32"}, {"name": "StatefulPartitionedCall/sequential/residual_stack_._1._._0/shortcut/conv1d/ExpandDims/dim", "shape": [], "dtype": "int32"}, {"name": "StatefulPartitionedCall/sequential/residual_stack_._1._._0/shortcut/conv1d/ExpandDims_1", "shape": [1, 1, 96, 96], "dtype": "float32", "quantization": {"dtype": "uint8", "min": -0.22127803634194768, "scale": 0.00179900842554429, "original_dtype": "float32"}}, {"name": "unknown_34", "shape": [96], "dtype": "float32", "quantization": {"dtype": "uint8", "min": -0.4817609712189319, "scale": 0.0038851691227333217, "original_dtype": "float32"}}, {"name": "StatefulPartitionedCall/sequential/conv_transpose_._1/conv2d_transpose_1/strided_slice/stack", "shape": [1], "dtype": "int32"}, {"name": "StatefulPartitionedCall/sequential/conv_transpose_._1/conv2d_transpose_1/strided_slice/stack_1", "shape": [1], "dtype": "int32"}, {"name": "StatefulPartitionedCall/sequential/conv_transpose_._1/conv2d_transpose_1/strided_slice/stack_2", "shape": [1], "dtype": "int32"}, {"name": "StatefulPartitionedCall/sequential/conv_transpose_._1/conv2d_transpose_1/strided_slice_1/stack", "shape": [1], "dtype": "int32"}, {"name": "StatefulPartitionedCall/sequential/conv_transpose_._1/conv2d_transpose_1/strided_slice_1/stack_1", "shape": [1], "dtype": "int32"}, {"name": "StatefulPartitionedCall/sequential/conv_transpose_._1/conv2d_transpose_1/strided_slice_1/stack_2", "shape": [1], "dtype": "int32"}, {"name": "StatefulPartitionedCall/sequential/conv_transpose_._1/conv2d_transpose_1/mul/y", "shape": [], "dtype": "int32"}, {"name": "StatefulPartitionedCall/sequential/conv_transpose_._1/conv2d_transpose_1/stack/2", "shape": [], "dtype": "int32"}, {"name": "StatefulPartitionedCall/sequential/conv_transpose_._1/conv2d_transpose_1/stack/3", "shape": [], "dtype": "int32"}, {"name": "unknown_27", "shape": [8, 1, 96, 192], "dtype": "float32", "quantization": {"dtype": "uint8", "min": -0.9043502870727987, "scale": 0.006903437305899227, "original_dtype": "float32"}}, {"name": "StatefulPartitionedCall/sequential/residual_stack_._0._._3/shortcut/conv1d/ExpandDims/dim", "shape": [], "dtype": "int32"}, {"name": "StatefulPartitionedCall/sequential/residual_stack_._0._._3/shortcut/conv1d/ExpandDims_1", "shape": [1, 1, 192, 192], "dtype": "float32", "quantization": {"dtype": "uint8", "min": -0.521707278139451, "scale": 0.004044242466197294, "original_dtype": "float32"}}, {"name": "unknown_26", "shape": [192], "dtype": "float32", "quantization": {"dtype": "uint8", "min": -0.5838053011426738, "scale": 0.004111304937624464, "original_dtype": "float32"}}, {"name": "StatefulPartitionedCall/sequential/residual_stack_._0._._3/conv1d_7/conv1d/SpaceToBatchND/block_shape", "shape": [1], "dtype": "int32"}, {"name": "StatefulPartitionedCall/sequential/residual_stack_._0._._3/conv1d_7/conv1d/required_space_to_batch_paddings/strided_slice_2", "shape": [], "dtype": "int32"}, {"name": "StatefulPartitionedCall/sequential/residual_stack_._0._._3/conv1d_7/conv1d/required_space_to_batch_paddings/strided_slice_3/stack", "shape": [1], "dtype": "int32"}, {"name": "StatefulPartitionedCall/sequential/residual_stack_._0._._3/conv1d_7/conv1d/required_space_to_batch_paddings/strided_slice_3/stack_1", "shape": [1], "dtype": "int32"}, {"name": "StatefulPartitionedCall/sequential/residual_stack_._0._._3/conv1d_7/conv1d/required_space_to_batch_paddings/strided_slice_3/stack_2", "shape": [1], "dtype": "int32"}, {"name": "StatefulPartitionedCall/sequential/residual_stack_._0._._3/conv1d_7/conv1d/ExpandDims/dim", "shape": [], "dtype": "int32"}, {"name": "StatefulPartitionedCall/sequential/residual_stack_._0._._3/conv1d_7/conv1d/ExpandDims_1", "shape": [1, 3, 192, 192], "dtype": "float32", "quantization": {"dtype": "uint8", "min": -1.6143288341223023, "scale": 0.013232203558379528, "original_dtype": "float32"}}, {"name": "StatefulPartitionedCall/sequential/residual_stack_._0._._3/conv1d_7/conv1d/BatchToSpaceND/block_shape", "shape": [1], "dtype": "int32"}, {"name": "StatefulPartitionedCall/sequential/residual_stack_._0._._3/conv1d_7/conv1d/required_space_to_batch_paddings/crops/0/0", "shape": [], "dtype": "int32"}, {"name": "StatefulPartitionedCall/sequential/residual_stack_._0._._2/shortcut/conv1d/ExpandDims/dim", "shape": [], "dtype": "int32"}, {"name": "StatefulPartitionedCall/sequential/residual_stack_._0._._2/shortcut/conv1d/ExpandDims_1", "shape": [1, 1, 192, 192], "dtype": "float32", "quantization": {"dtype": "uint8", "min": -0.5190461874008179, "scale": 0.004152369499206543, "original_dtype": "float32"}}, {"name": "unknown_20", "shape": [192], "dtype": "float32", "quantization": {"dtype": "uint8", "min": -0.7968759340398451, "scale": 0.006177332822014304, "original_dtype": "float32"}}, {"name": "StatefulPartitionedCall/sequential/residual_stack_._0._._2/conv1d_5/conv1d/SpaceToBatchND/block_shape", "shape": [1], "dtype": "int32"}, {"name": "StatefulPartitionedCall/sequential/residual_stack_._0._._2/conv1d_5/conv1d/required_space_to_batch_paddings/strided_slice_2", "shape": [], "dtype": "int32"}, {"name": "StatefulPartitionedCall/sequential/residual_stack_._0._._2/conv1d_5/conv1d/required_space_to_batch_paddings/strided_slice_3/stack", "shape": [1], "dtype": "int32"}, {"name": "StatefulPartitionedCall/sequential/residual_stack_._0._._2/conv1d_5/conv1d/required_space_to_batch_paddings/strided_slice_3/stack_1", "shape": [1], "dtype": "int32"}, {"name": "StatefulPartitionedCall/sequential/residual_stack_._0._._2/conv1d_5/conv1d/required_space_to_batch_paddings/strided_slice_3/stack_2", "shape": [1], "dtype": "int32"}, {"name": "StatefulPartitionedCall/sequential/residual_stack_._0._._2/conv1d_5/conv1d/ExpandDims/dim", "shape": [], "dtype": "int32"}, {"name": "StatefulPartitionedCall/sequential/residual_stack_._0._._2/conv1d_5/conv1d/ExpandDims_1", "shape": [1, 3, 192, 192], "dtype": "float32", "quantization": {"dtype": "uint8", "min": -1.1378242268281824, "scale": 0.009250603470147825, "original_dtype": "float32"}}, {"name": "StatefulPartitionedCall/sequential/residual_stack_._0._._2/conv1d_5/conv1d/BatchToSpaceND/block_shape", "shape": [1], "dtype": "int32"}, {"name": "StatefulPartitionedCall/sequential/residual_stack_._0._._2/conv1d_5/conv1d/required_space_to_batch_paddings/crops/0/0", "shape": [], "dtype": "int32"}, {"name": "StatefulPartitionedCall/sequential/residual_stack_._0._._1/shortcut/conv1d/ExpandDims/dim", "shape": [], "dtype": "int32"}, {"name": "StatefulPartitionedCall/sequential/residual_stack_._0._._1/shortcut/conv1d/ExpandDims_1", "shape": [1, 1, 192, 192], "dtype": "float32", "quantization": {"dtype": "uint8", "min": -0.4747644356652802, "scale": 0.003923673022027109, "original_dtype": "float32"}}, {"name": "unknown_14", "shape": [192], "dtype": "float32", "quantization": {"dtype": "uint8", "min": -0.8130096253226785, "scale": 0.006302400196299834, "original_dtype": "float32"}}, {"name": "StatefulPartitionedCall/sequential/residual_stack_._0._._1/conv1d_3/conv1d/SpaceToBatchND/block_shape", "shape": [1], "dtype": "int32"}, {"name": "StatefulPartitionedCall/sequential/residual_stack_._0._._1/conv1d_3/conv1d/required_space_to_batch_paddings/strided_slice_2", "shape": [], "dtype": "int32"}, {"name": "StatefulPartitionedCall/sequential/residual_stack_._0._._1/conv1d_3/conv1d/required_space_to_batch_paddings/strided_slice_3/stack", "shape": [1], "dtype": "int32"}, {"name": "StatefulPartitionedCall/sequential/residual_stack_._0._._1/conv1d_3/conv1d/required_space_to_batch_paddings/strided_slice_3/stack_1", "shape": [1], "dtype": "int32"}, {"name": "StatefulPartitionedCall/sequential/residual_stack_._0._._1/conv1d_3/conv1d/required_space_to_batch_paddings/strided_slice_3/stack_2", "shape": [1], "dtype": "int32"}, {"name": "StatefulPartitionedCall/sequential/residual_stack_._0._._1/conv1d_3/conv1d/ExpandDims/dim", "shape": [], "dtype": "int32"}, {"name": "StatefulPartitionedCall/sequential/residual_stack_._0._._1/conv1d_3/conv1d/ExpandDims_1", "shape": [1, 3, 192, 192], "dtype": "float32", "quantization": {"dtype": "uint8", "min": -1.4219848296221564, "scale": 0.009115287369372798, "original_dtype": "float32"}}, {"name": "StatefulPartitionedCall/sequential/residual_stack_._0._._1/conv1d_3/conv1d/BatchToSpaceND/block_shape", "shape": [1], "dtype": "int32"}, {"name": "StatefulPartitionedCall/sequential/residual_stack_._0._._1/conv1d_3/conv1d/required_space_to_batch_paddings/crops/0/0", "shape": [], "dtype": "int32"}, {"name": "StatefulPartitionedCall/sequential/residual_stack_._0._._0/shortcut/conv1d/ExpandDims/dim", "shape": [], "dtype": "int32"}, {"name": "StatefulPartitionedCall/sequential/residual_stack_._0._._0/shortcut/conv1d/ExpandDims_1", "shape": [1, 1, 192, 192], "dtype": "float32", "quantization": {"dtype": "uint8", "min": -0.45511075421875596, "scale": 0.0039233685708513445, "original_dtype": "float32"}}, {"name": "unknown_8", "shape": [192], "dtype": "float32", "quantization": {"dtype": "uint8", "min": -0.9359926672542797, "scale": 0.007609696481742111, "original_dtype": "float32"}}, {"name": "StatefulPartitionedCall/sequential/conv_transpose_._0/conv2d_transpose/strided_slice/stack", "shape": [1], "dtype": "int32"}, {"name": "StatefulPartitionedCall/sequential/conv_transpose_._0/conv2d_transpose/strided_slice/stack_1", "shape": [1], "dtype": "int32"}, {"name": "StatefulPartitionedCall/sequential/conv_transpose_._0/conv2d_transpose/strided_slice/stack_2", "shape": [1], "dtype": "int32"}, {"name": "StatefulPartitionedCall/sequential/conv_transpose_._0/conv2d_transpose/strided_slice_1/stack", "shape": [1], "dtype": "int32"}, {"name": "StatefulPartitionedCall/sequential/conv_transpose_._0/conv2d_transpose/strided_slice_1/stack_1", "shape": [1], "dtype": "int32"}, {"name": "StatefulPartitionedCall/sequential/conv_transpose_._0/conv2d_transpose/strided_slice_1/stack_2", "shape": [1], "dtype": "int32"}, {"name": "StatefulPartitionedCall/sequential/conv_transpose_._0/conv2d_transpose/mul/y", "shape": [], "dtype": "int32"}, {"name": "StatefulPartitionedCall/sequential/conv_transpose_._0/conv2d_transpose/stack/2", "shape": [], "dtype": "int32"}, {"name": "StatefulPartitionedCall/sequential/conv_transpose_._0/conv2d_transpose/stack/3", "shape": [], "dtype": "int32"}, {"name": "unknown_1", "shape": [16, 1, 192, 384], "dtype": "float32", "quantization": {"dtype": "uint8", "min": -1.869453811645508, "scale": 0.013745983909158146, "original_dtype": "float32"}}, {"name": "StatefulPartitionedCall/sequential/first_reflect_padding/MirrorPad/paddings", "shape": [3, 2], "dtype": "int32"}, {"name": "StatefulPartitionedCall/sequential/conv1d/conv1d/ExpandDims/dim", "shape": [], "dtype": "int32"}, {"name": "StatefulPartitionedCall/sequential/conv1d/conv1d/ExpandDims_1", "shape": [1, 7, 80, 384], "dtype": "float32", "quantization": {"dtype": "uint8", "min": -2.2538750283858353, "scale": 0.018324187222649068, "original_dtype": "float32"}}, {"name": "unknown_0", "shape": [384], "dtype": "float32", "quantization": {"dtype": "uint8", "min": -2.297591534782858, "scale": 0.015955496769325405, "original_dtype": "float32"}}, {"name": "StatefulPartitionedCall/sequential/conv_transpose_._0/ExpandDims/dim", "shape": [], "dtype": "int32"}, {"name": "unknown_2", "shape": [192], "dtype": "float32", "quantization": {"dtype": "uint8", "min": -0.8873571344450408, "scale": 0.0068258241111156985, "original_dtype": "float32"}}, {"name": "StatefulPartitionedCall/sequential/residual_stack_._0._._0/tf_reflection_pad1d/MirrorPad/paddings", "shape": [3, 2], "dtype": "int32"}, {"name": "StatefulPartitionedCall/sequential/residual_stack_._0._._0/conv1d_1/conv1d/ExpandDims/dim", "shape": [], "dtype": "int32"}, {"name": "StatefulPartitionedCall/sequential/residual_stack_._0._._0/conv1d_1/conv1d/ExpandDims_1", "shape": [1, 3, 192, 192], "dtype": "float32", "quantization": {"dtype": "uint8", "min": -3.2035909725170515, "scale": 0.01626188310922361, "original_dtype": "float32"}}, {"name": "unknown_4", "shape": [192], "dtype": "float32", "quantization": {"dtype": "uint8", "min": -1.3144684866362926, "scale": 0.009389060618830661, "original_dtype": "float32"}}, {"name": "StatefulPartitionedCall/sequential/residual_stack_._0._._0/conv1d_2/conv1d/ExpandDims/dim", "shape": [], "dtype": "int32"}, {"name": "StatefulPartitionedCall/sequential/residual_stack_._0._._0/conv1d_2/conv1d/ExpandDims_1", "shape": [1, 1, 192, 192], "dtype": "float32", "quantization": {"dtype": "uint8", "min": -0.9129151736988741, "scale": 0.007076861811619179, "original_dtype": "float32"}}, {"name": "unknown_6", "shape": [192], "dtype": "float32", "quantization": {"dtype": "uint8", "min": -0.9359926960047553, "scale": 0.0076096967154858156, "original_dtype": "float32"}}, {"name": "StatefulPartitionedCall/sequential/residual_stack_._0._._1/tf_reflection_pad1d_1/MirrorPad/paddings", "shape": [3, 2], "dtype": "int32"}, {"name": "StatefulPartitionedCall/sequential/residual_stack_._0._._1/conv1d_3/conv1d/strided_slice/stack", "shape": [1], "dtype": "int32"}, {"name": "StatefulPartitionedCall/sequential/residual_stack_._0._._1/conv1d_3/conv1d/strided_slice/stack_1", "shape": [1], "dtype": "int32"}, {"name": "StatefulPartitionedCall/sequential/residual_stack_._0._._1/conv1d_3/conv1d/strided_slice/stack_2", "shape": [1], "dtype": "int32"}, {"name": "StatefulPartitionedCall/sequential/residual_stack_._0._._1/conv1d_3/conv1d/dilation_rate", "shape": [1], "dtype": "int32"}, {"name": "StatefulPartitionedCall/sequential/residual_stack_._0._._1/conv1d_3/conv1d/required_space_to_batch_paddings/strided_slice_4/stack", "shape": [1], "dtype": "int32"}, {"name": "StatefulPartitionedCall/sequential/residual_stack_._0._._1/conv1d_3/conv1d/required_space_to_batch_paddings/strided_slice_4/stack_1", "shape": [1], "dtype": "int32"}, {"name": "StatefulPartitionedCall/sequential/residual_stack_._0._._1/conv1d_3/conv1d/required_space_to_batch_paddings/strided_slice_4/stack_2", "shape": [1], "dtype": "int32"}, {"name": "unknown_10", "shape": [192], "dtype": "float32", "quantization": {"dtype": "uint8", "min": -1.0457021629109102, "scale": 0.007745941947488223, "original_dtype": "float32"}}, {"name": "StatefulPartitionedCall/sequential/residual_stack_._0._._1/conv1d_4/conv1d/ExpandDims/dim", "shape": [], "dtype": "int32"}, {"name": "StatefulPartitionedCall/sequential/residual_stack_._0._._1/conv1d_4/conv1d/ExpandDims_1", "shape": [1, 1, 192, 192], "dtype": "float32", "quantization": {"dtype": "uint8", "min": -0.939054298400879, "scale": 0.006904811017653521, "original_dtype": "float32"}}, {"name": "unknown_12", "shape": [192], "dtype": "float32", "quantization": {"dtype": "uint8", "min": -0.8130097157814924, "scale": 0.0063024008975309485, "original_dtype": "float32"}}, {"name": "StatefulPartitionedCall/sequential/residual_stack_._0._._2/tf_reflection_pad1d_2/MirrorPad/paddings", "shape": [3, 2], "dtype": "int32"}, {"name": "StatefulPartitionedCall/sequential/residual_stack_._0._._2/conv1d_5/conv1d/strided_slice/stack", "shape": [1], "dtype": "int32"}, {"name": "StatefulPartitionedCall/sequential/residual_stack_._0._._2/conv1d_5/conv1d/strided_slice/stack_1", "shape": [1], "dtype": "int32"}, {"name": "StatefulPartitionedCall/sequential/residual_stack_._0._._2/conv1d_5/conv1d/strided_slice/stack_2", "shape": [1], "dtype": "int32"}, {"name": "StatefulPartitionedCall/sequential/residual_stack_._0._._2/conv1d_5/conv1d/dilation_rate", "shape": [1], "dtype": "int32"}, {"name": "StatefulPartitionedCall/sequential/residual_stack_._0._._2/conv1d_5/conv1d/required_space_to_batch_paddings/strided_slice_4/stack", "shape": [1], "dtype": "int32"}, {"name": "StatefulPartitionedCall/sequential/residual_stack_._0._._2/conv1d_5/conv1d/required_space_to_batch_paddings/strided_slice_4/stack_1", "shape": [1], "dtype": "int32"}, {"name": "StatefulPartitionedCall/sequential/residual_stack_._0._._2/conv1d_5/conv1d/required_space_to_batch_paddings/strided_slice_4/stack_2", "shape": [1], "dtype": "int32"}, {"name": "unknown_16", "shape": [192], "dtype": "float32", "quantization": {"dtype": "uint8", "min": -1.1087792894419501, "scale": 0.006484089411941229, "original_dtype": "float32"}}, {"name": "StatefulPartitionedCall/sequential/residual_stack_._0._._2/conv1d_6/conv1d/ExpandDims/dim", "shape": [], "dtype": "int32"}, {"name": "StatefulPartitionedCall/sequential/residual_stack_._0._._2/conv1d_6/conv1d/ExpandDims_1", "shape": [1, 1, 192, 192], "dtype": "float32", "quantization": {"dtype": "uint8", "min": -1.5219559583009459, "scale": 0.009693986995547426, "original_dtype": "float32"}}, {"name": "unknown_18", "shape": [192], "dtype": "float32", "quantization": {"dtype": "uint8", "min": -0.7968756928163416, "scale": 0.006177330952064664, "original_dtype": "float32"}}, {"name": "StatefulPartitionedCall/sequential/residual_stack_._0._._3/tf_reflection_pad1d_3/MirrorPad/paddings", "shape": [3, 2], "dtype": "int32"}, {"name": "StatefulPartitionedCall/sequential/residual_stack_._0._._3/conv1d_7/conv1d/strided_slice/stack", "shape": [1], "dtype": "int32"}, {"name": "StatefulPartitionedCall/sequential/residual_stack_._0._._3/conv1d_7/conv1d/strided_slice/stack_1", "shape": [1], "dtype": "int32"}, {"name": "StatefulPartitionedCall/sequential/residual_stack_._0._._3/conv1d_7/conv1d/strided_slice/stack_2", "shape": [1], "dtype": "int32"}, {"name": "StatefulPartitionedCall/sequential/residual_stack_._0._._3/conv1d_7/conv1d/dilation_rate", "shape": [1], "dtype": "int32"}, {"name": "StatefulPartitionedCall/sequential/residual_stack_._0._._3/conv1d_7/conv1d/required_space_to_batch_paddings/strided_slice_4/stack", "shape": [1], "dtype": "int32"}, {"name": "StatefulPartitionedCall/sequential/residual_stack_._0._._3/conv1d_7/conv1d/required_space_to_batch_paddings/strided_slice_4/stack_1", "shape": [1], "dtype": "int32"}, {"name": "StatefulPartitionedCall/sequential/residual_stack_._0._._3/conv1d_7/conv1d/required_space_to_batch_paddings/strided_slice_4/stack_2", "shape": [1], "dtype": "int32"}, {"name": "unknown_22", "shape": [192], "dtype": "float32", "quantization": {"dtype": "uint8", "min": -0.8636717660754335, "scale": 0.005501094051435882, "original_dtype": "float32"}}, {"name": "StatefulPartitionedCall/sequential/residual_stack_._0._._3/conv1d_8/conv1d/ExpandDims/dim", "shape": [], "dtype": "int32"}, {"name": "StatefulPartitionedCall/sequential/residual_stack_._0._._3/conv1d_8/conv1d/ExpandDims_1", "shape": [1, 1, 192, 192], "dtype": "float32", "quantization": {"dtype": "uint8", "min": -1.1350706535227157, "scale": 0.008407930766834932, "original_dtype": "float32"}}, {"name": "unknown_24", "shape": [192], "dtype": "float32", "quantization": {"dtype": "uint8", "min": -0.5838053841216891, "scale": 0.004111305521983726, "original_dtype": "float32"}}, {"name": "StatefulPartitionedCall/sequential/conv_transpose_._1/ExpandDims/dim", "shape": [], "dtype": "int32"}, {"name": "unknown_28", "shape": [96], "dtype": "float32", "quantization": {"dtype": "uint8", "min": -0.420928285519282, "scale": 0.0032131930192311605, "original_dtype": "float32"}}, {"name": "StatefulPartitionedCall/sequential/residual_stack_._1._._0/tf_reflection_pad1d_4/MirrorPad/paddings", "shape": [3, 2], "dtype": "int32"}, {"name": "StatefulPartitionedCall/sequential/residual_stack_._1._._0/conv1d_9/conv1d/ExpandDims/dim", "shape": [], "dtype": "int32"}, {"name": "StatefulPartitionedCall/sequential/residual_stack_._1._._0/conv1d_9/conv1d/ExpandDims_1", "shape": [1, 3, 96, 96], "dtype": "float32", "quantization": {"dtype": "uint8", "min": -0.74172223035027, "scale": 0.005260441350001915, "original_dtype": "float32"}}, {"name": "unknown_30", "shape": [96], "dtype": "float32", "quantization": {"dtype": "uint8", "min": -1.229799452014998, "scale": 0.007498777146432914, "original_dtype": "float32"}}, {"name": "StatefulPartitionedCall/sequential/residual_stack_._1._._0/conv1d_10/conv1d/ExpandDims/dim", "shape": [], "dtype": "int32"}, {"name": "StatefulPartitionedCall/sequential/residual_stack_._1._._0/conv1d_10/conv1d/ExpandDims_1", "shape": [1, 1, 96, 96], "dtype": "float32", "quantization": {"dtype": "uint8", "min": -1.136048221588135, "scale": 0.007282360394795736, "original_dtype": "float32"}}, {"name": "unknown_32", "shape": [96], "dtype": "float32", "quantization": {"dtype": "uint8", "min": -0.4817612320769067, "scale": 0.0038851712264266667, "original_dtype": "float32"}}, {"name": "StatefulPartitionedCall/sequential/residual_stack_._1._._1/tf_reflection_pad1d_5/MirrorPad/paddings", "shape": [3, 2], "dtype": "int32"}, {"name": "StatefulPartitionedCall/sequential/residual_stack_._1._._1/conv1d_11/conv1d/strided_slice/stack", "shape": [1], "dtype": "int32"}, {"name": "StatefulPartitionedCall/sequential/residual_stack_._1._._1/conv1d_11/conv1d/strided_slice/stack_1", "shape": [1], "dtype": "int32"}, {"name": "StatefulPartitionedCall/sequential/residual_stack_._1._._1/conv1d_11/conv1d/strided_slice/stack_2", "shape": [1], "dtype": "int32"}, {"name": "StatefulPartitionedCall/sequential/residual_stack_._1._._1/conv1d_11/conv1d/dilation_rate", "shape": [1], "dtype": "int32"}, {"name": "StatefulPartitionedCall/sequential/residual_stack_._1._._1/conv1d_11/conv1d/required_space_to_batch_paddings/strided_slice_4/stack", "shape": [1], "dtype": "int32"}, {"name": "StatefulPartitionedCall/sequential/residual_stack_._1._._1/conv1d_11/conv1d/required_space_to_batch_paddings/strided_slice_4/stack_1", "shape": [1], "dtype": "int32"}, {"name": "StatefulPartitionedCall/sequential/residual_stack_._1._._1/conv1d_11/conv1d/required_space_to_batch_paddings/strided_slice_4/stack_2", "shape": [1], "dtype": "int32"}, {"name": "unknown_36", "shape": [96], "dtype": "float32", "quantization": {"dtype": "uint8", "min": -1.060055922760683, "scale": 0.0074129784808439365, "original_dtype": "float32"}}, {"name": "StatefulPartitionedCall/sequential/residual_stack_._1._._1/conv1d_12/conv1d/ExpandDims/dim", "shape": [], "dtype": "int32"}, {"name": "StatefulPartitionedCall/sequential/residual_stack_._1._._1/conv1d_12/conv1d/ExpandDims_1", "shape": [1, 1, 96, 96], "dtype": "float32", "quantization": {"dtype": "uint8", "min": -0.9347894339000478, "scale": 0.00635911179523842, "original_dtype": "float32"}}, {"name": "unknown_38", "shape": [96], "dtype": "float32", "quantization": {"dtype": "uint8", "min": -0.4885776019563862, "scale": 0.004885776019563862, "original_dtype": "float32"}}, {"name": "StatefulPartitionedCall/sequential/residual_stack_._1._._2/tf_reflection_pad1d_6/MirrorPad/paddings", "shape": [3, 2], "dtype": "int32"}, {"name": "StatefulPartitionedCall/sequential/residual_stack_._1._._2/conv1d_13/conv1d/strided_slice/stack", "shape": [1], "dtype": "int32"}, {"name": "StatefulPartitionedCall/sequential/residual_stack_._1._._2/conv1d_13/conv1d/strided_slice/stack_1", "shape": [1], "dtype": "int32"}, {"name": "StatefulPartitionedCall/sequential/residual_stack_._1._._2/conv1d_13/conv1d/strided_slice/stack_2", "shape": [1], "dtype": "int32"}, {"name": "StatefulPartitionedCall/sequential/residual_stack_._1._._2/conv1d_13/conv1d/dilation_rate", "shape": [1], "dtype": "int32"}, {"name": "StatefulPartitionedCall/sequential/residual_stack_._1._._2/conv1d_13/conv1d/required_space_to_batch_paddings/strided_slice_4/stack", "shape": [1], "dtype": "int32"}, {"name": "StatefulPartitionedCall/sequential/residual_stack_._1._._2/conv1d_13/conv1d/required_space_to_batch_paddings/strided_slice_4/stack_1", "shape": [1], "dtype": "int32"}, {"name": "StatefulPartitionedCall/sequential/residual_stack_._1._._2/conv1d_13/conv1d/required_space_to_batch_paddings/strided_slice_4/stack_2", "shape": [1], "dtype": "int32"}, {"name": "unknown_42", "shape": [96], "dtype": "float32", "quantization": {"dtype": "uint8", "min": -1.0860429726394951, "scale": 0.00617069870817895, "original_dtype": "float32"}}, {"name": "StatefulPartitionedCall/sequential/residual_stack_._1._._2/conv1d_14/conv1d/ExpandDims/dim", "shape": [], "dtype": "int32"}, {"name": "StatefulPartitionedCall/sequential/residual_stack_._1._._2/conv1d_14/conv1d/ExpandDims_1", "shape": [1, 1, 96, 96], "dtype": "float32", "quantization": {"dtype": "uint8", "min": -0.5593533934331407, "scale": 0.0039391084044587375, "original_dtype": "float32"}}, {"name": "unknown_44", "shape": [96], "dtype": "float32", "quantization": {"dtype": "uint8", "min": -0.36766600503641017, "scale": 0.004040285769630881, "original_dtype": "float32"}}, {"name": "StatefulPartitionedCall/sequential/residual_stack_._1._._3/tf_reflection_pad1d_7/MirrorPad/paddings", "shape": [3, 2], "dtype": "int32"}, {"name": "StatefulPartitionedCall/sequential/residual_stack_._1._._3/conv1d_15/conv1d/strided_slice/stack", "shape": [1], "dtype": "int32"}, {"name": "StatefulPartitionedCall/sequential/residual_stack_._1._._3/conv1d_15/conv1d/strided_slice/stack_1", "shape": [1], "dtype": "int32"}, {"name": "StatefulPartitionedCall/sequential/residual_stack_._1._._3/conv1d_15/conv1d/strided_slice/stack_2", "shape": [1], "dtype": "int32"}, {"name": "StatefulPartitionedCall/sequential/residual_stack_._1._._3/conv1d_15/conv1d/dilation_rate", "shape": [1], "dtype": "int32"}, {"name": "StatefulPartitionedCall/sequential/residual_stack_._1._._3/conv1d_15/conv1d/required_space_to_batch_paddings/strided_slice_4/stack", "shape": [1], "dtype": "int32"}, {"name": "StatefulPartitionedCall/sequential/residual_stack_._1._._3/conv1d_15/conv1d/required_space_to_batch_paddings/strided_slice_4/stack_1", "shape": [1], "dtype": "int32"}, {"name": "StatefulPartitionedCall/sequential/residual_stack_._1._._3/conv1d_15/conv1d/required_space_to_batch_paddings/strided_slice_4/stack_2", "shape": [1], "dtype": "int32"}, {"name": "unknown_48", "shape": [96], "dtype": "float32", "quantization": {"dtype": "uint8", "min": -1.325121430789723, "scale": 0.006310102051379634, "original_dtype": "float32"}}, {"name": "StatefulPartitionedCall/sequential/residual_stack_._1._._3/conv1d_16/conv1d/ExpandDims/dim", "shape": [], "dtype": "int32"}, {"name": "StatefulPartitionedCall/sequential/residual_stack_._1._._3/conv1d_16/conv1d/ExpandDims_1", "shape": [1, 1, 96, 96], "dtype": "float32", "quantization": {"dtype": "uint8", "min": -0.6595600401653964, "scale": 0.006051009542801801, "original_dtype": "float32"}}, {"name": "unknown_50", "shape": [96], "dtype": "float32", "quantization": {"dtype": "uint8", "min": -0.3849473932210137, "scale": 0.0023472402025671566, "original_dtype": "float32"}}, {"name": "StatefulPartitionedCall/sequential/conv_transpose_._2/ExpandDims/dim", "shape": [], "dtype": "int32"}, {"name": "unknown_54", "shape": [48], "dtype": "float32", "quantization": {"dtype": "uint8", "min": -0.3506915064419017, "scale": 0.002087449443106558, "original_dtype": "float32"}}, {"name": "StatefulPartitionedCall/sequential/residual_stack_._2._._0/tf_reflection_pad1d_8/MirrorPad/paddings", "shape": [3, 2], "dtype": "int32"}, {"name": "StatefulPartitionedCall/sequential/residual_stack_._2._._0/conv1d_17/conv1d/ExpandDims/dim", "shape": [], "dtype": "int32"}, {"name": "StatefulPartitionedCall/sequential/residual_stack_._2._._0/conv1d_17/conv1d/ExpandDims_1", "shape": [1, 3, 48, 48], "dtype": "float32", "quantization": {"dtype": "uint8", "min": -0.5466888283981997, "scale": 0.0034382945182276706, "original_dtype": "float32"}}, {"name": "unknown_56", "shape": [48], "dtype": "float32", "quantization": {"dtype": "uint8", "min": -0.6294633025047826, "scale": 0.0031161549628949633, "original_dtype": "float32"}}, {"name": "StatefulPartitionedCall/sequential/residual_stack_._2._._0/conv1d_18/conv1d/ExpandDims/dim", "shape": [], "dtype": "int32"}, {"name": "StatefulPartitionedCall/sequential/residual_stack_._2._._0/conv1d_18/conv1d/ExpandDims_1", "shape": [1, 1, 48, 48], "dtype": "float32", "quantization": {"dtype": "uint8", "min": -0.4789512741799449, "scale": 0.004128890294654697, "original_dtype": "float32"}}, {"name": "unknown_58", "shape": [48], "dtype": "float32", "quantization": {"dtype": "uint8", "min": -0.07946556905905405, "scale": 0.0006066073973973592, "original_dtype": "float32"}}, {"name": "StatefulPartitionedCall/sequential/residual_stack_._2._._1/tf_reflection_pad1d_9/MirrorPad/paddings", "shape": [3, 2], "dtype": "int32"}, {"name": "StatefulPartitionedCall/sequential/residual_stack_._2._._1/conv1d_19/conv1d/strided_slice/stack", "shape": [1], "dtype": "int32"}, {"name": "StatefulPartitionedCall/sequential/residual_stack_._2._._1/conv1d_19/conv1d/strided_slice/stack_1", "shape": [1], "dtype": "int32"}, {"name": "StatefulPartitionedCall/sequential/residual_stack_._2._._1/conv1d_19/conv1d/strided_slice/stack_2", "shape": [1], "dtype": "int32"}, {"name": "StatefulPartitionedCall/sequential/residual_stack_._2._._1/conv1d_19/conv1d/dilation_rate", "shape": [1], "dtype": "int32"}, {"name": "StatefulPartitionedCall/sequential/residual_stack_._2._._1/conv1d_19/conv1d/required_space_to_batch_paddings/strided_slice_4/stack", "shape": [1], "dtype": "int32"}, {"name": "StatefulPartitionedCall/sequential/residual_stack_._2._._1/conv1d_19/conv1d/required_space_to_batch_paddings/strided_slice_4/stack_1", "shape": [1], "dtype": "int32"}, {"name": "StatefulPartitionedCall/sequential/residual_stack_._2._._1/conv1d_19/conv1d/required_space_to_batch_paddings/strided_slice_4/stack_2", "shape": [1], "dtype": "int32"}, {"name": "unknown_62", "shape": [48], "dtype": "float32", "quantization": {"dtype": "uint8", "min": -0.3656011761403551, "scale": 0.0018280058807017756, "original_dtype": "float32"}}, {"name": "StatefulPartitionedCall/sequential/residual_stack_._2._._1/conv1d_20/conv1d/ExpandDims/dim", "shape": [], "dtype": "int32"}, {"name": "StatefulPartitionedCall/sequential/residual_stack_._2._._1/conv1d_20/conv1d/ExpandDims_1", "shape": [1, 1, 48, 48], "dtype": "float32", "quantization": {"dtype": "uint8", "min": -0.47108677099732793, "scale": 0.003709344653522267, "original_dtype": "float32"}}, {"name": "unknown_64", "shape": [48], "dtype": "float32", "quantization": {"dtype": "uint8", "min": -0.027717451071914506, "scale": 0.00019115483497872073, "original_dtype": "float32"}}, {"name": "StatefulPartitionedCall/sequential/residual_stack_._2._._2/tf_reflection_pad1d_10/MirrorPad/paddings", "shape": [3, 2], "dtype": "int32"}, {"name": "StatefulPartitionedCall/sequential/residual_stack_._2._._2/conv1d_21/conv1d/strided_slice/stack", "shape": [1], "dtype": "int32"}, {"name": "StatefulPartitionedCall/sequential/residual_stack_._2._._2/conv1d_21/conv1d/strided_slice/stack_1", "shape": [1], "dtype": "int32"}, {"name": "StatefulPartitionedCall/sequential/residual_stack_._2._._2/conv1d_21/conv1d/strided_slice/stack_2", "shape": [1], "dtype": "int32"}, {"name": "StatefulPartitionedCall/sequential/residual_stack_._2._._2/conv1d_21/conv1d/dilation_rate", "shape": [1], "dtype": "int32"}, {"name": "StatefulPartitionedCall/sequential/residual_stack_._2._._2/conv1d_21/conv1d/required_space_to_batch_paddings/strided_slice_4/stack", "shape": [1], "dtype": "int32"}, {"name": "StatefulPartitionedCall/sequential/residual_stack_._2._._2/conv1d_21/conv1d/required_space_to_batch_paddings/strided_slice_4/stack_1", "shape": [1], "dtype": "int32"}, {"name": "StatefulPartitionedCall/sequential/residual_stack_._2._._2/conv1d_21/conv1d/required_space_to_batch_paddings/strided_slice_4/stack_2", "shape": [1], "dtype": "int32"}, {"name": "unknown_68", "shape": [48], "dtype": "float32", "quantization": {"dtype": "uint8", "min": -0.059478365114944816, "scale": 0.0002541810474997642, "original_dtype": "float32"}}, {"name": "StatefulPartitionedCall/sequential/residual_stack_._2._._2/conv1d_22/conv1d/ExpandDims/dim", "shape": [], "dtype": "int32"}, {"name": "StatefulPartitionedCall/sequential/residual_stack_._2._._2/conv1d_22/conv1d/ExpandDims_1", "shape": [1, 1, 48, 48], "dtype": "float32", "quantization": {"dtype": "uint8", "min": -0.406370210647583, "scale": 0.0029880162547616398, "original_dtype": "float32"}}, {"name": "unknown_70", "shape": [48], "dtype": "float32", "quantization": {"dtype": "uint8", "min": -0.005196972804910997, "scale": 3.464648536607331e-05, "original_dtype": "float32"}}, {"name": "StatefulPartitionedCall/sequential/residual_stack_._2._._3/tf_reflection_pad1d_11/MirrorPad/paddings", "shape": [3, 2], "dtype": "int32"}, {"name": "StatefulPartitionedCall/sequential/residual_stack_._2._._3/conv1d_23/conv1d/strided_slice/stack", "shape": [1], "dtype": "int32"}, {"name": "StatefulPartitionedCall/sequential/residual_stack_._2._._3/conv1d_23/conv1d/strided_slice/stack_1", "shape": [1], "dtype": "int32"}, {"name": "StatefulPartitionedCall/sequential/residual_stack_._2._._3/conv1d_23/conv1d/strided_slice/stack_2", "shape": [1], "dtype": "int32"}, {"name": "StatefulPartitionedCall/sequential/residual_stack_._2._._3/conv1d_23/conv1d/dilation_rate", "shape": [1], "dtype": "int32"}, {"name": "StatefulPartitionedCall/sequential/residual_stack_._2._._3/conv1d_23/conv1d/required_space_to_batch_paddings/strided_slice_4/stack", "shape": [1], "dtype": "int32"}, {"name": "StatefulPartitionedCall/sequential/residual_stack_._2._._3/conv1d_23/conv1d/required_space_to_batch_paddings/strided_slice_4/stack_1", "shape": [1], "dtype": "int32"}, {"name": "StatefulPartitionedCall/sequential/residual_stack_._2._._3/conv1d_23/conv1d/required_space_to_batch_paddings/strided_slice_4/stack_2", "shape": [1], "dtype": "int32"}, {"name": "unknown_74", "shape": [48], "dtype": "float32", "quantization": {"dtype": "uint8", "min": -0.018462159793239598, "scale": 7.822949064932033e-05, "original_dtype": "float32"}}, {"name": "StatefulPartitionedCall/sequential/residual_stack_._2._._3/conv1d_24/conv1d/ExpandDims/dim", "shape": [], "dtype": "int32"}, {"name": "StatefulPartitionedCall/sequential/residual_stack_._2._._3/conv1d_24/conv1d/ExpandDims_1", "shape": [1, 1, 48, 48], "dtype": "float32", "quantization": {"dtype": "uint8", "min": -0.279223999673245, "scale": 0.0021314809135362213, "original_dtype": "float32"}}, {"name": "unknown_76", "shape": [48], "dtype": "float32", "quantization": {"dtype": "uint8", "min": -0.002758719468735816, "scale": 1.1214306783478927e-05, "original_dtype": "float32"}}, {"name": "StatefulPartitionedCall/sequential/last_reflect_padding/MirrorPad/paddings", "shape": [3, 2], "dtype": "int32"}, {"name": "StatefulPartitionedCall/sequential/conv1d_25/conv1d/ExpandDims/dim", "shape": [], "dtype": "int32"}, {"name": "StatefulPartitionedCall/sequential/conv1d_25/conv1d/ExpandDims_1", "shape": [1, 7, 48, 4], "dtype": "float32", "quantization": {"dtype": "uint8", "min": -1.4676776914035572, "scale": 0.01276241470785702, "original_dtype": "float32"}}, {"name": "unknown_80", "shape": [4], "dtype": "float32", "quantization": {"dtype": "uint8", "min": -0.0002403848464988793, "scale": 9.692937358825779e-07, "original_dtype": "float32"}}, {"name": "StatefulPartitionedCall/PartitionedCall/conv1d_transpose/ExpandDims/dim", "shape": [], "dtype": "int32"}, {"name": "StatefulPartitionedCall/PartitionedCall/Pad/paddings", "shape": [3, 2], "dtype": "int32"}, {"name": "StatefulPartitionedCall/PartitionedCall/conv1d/ExpandDims/dim", "shape": [], "dtype": "int32"}, {"name": "StatefulPartitionedCall/PartitionedCall/conv1d/ExpandDims_1", "shape": [1, 63, 4, 1], "dtype": "float32", "quantization": {"dtype": "uint8", "min": -0.25165641798692595, "scale": 0.0019815465983222514, "original_dtype": "float32"}}, {"name": "ConstantFolding/StatefulPartitionedCall/sequential/residual_stack_._0._._1/conv1d_3/conv1d/stack_const_axis", "shape": [], "dtype": "int32"}, {"name": "ConstantFolding/StatefulPartitionedCall/sequential/residual_stack_._0._._1/conv1d_3/conv1d/required_space_to_batch_paddings/paddings_const_axis", "shape": [], "dtype": "int32"}, {"name": "ConstantFolding/StatefulPartitionedCall/sequential/residual_stack_._0._._1/conv1d_3/conv1d/required_space_to_batch_paddings/crops_const_axis", "shape": [], "dtype": "int32"}, {"name": "ConstantFolding/StatefulPartitionedCall/sequential/residual_stack_._0._._2/conv1d_5/conv1d/stack_const_axis", "shape": [], "dtype": "int32"}, {"name": "ConstantFolding/StatefulPartitionedCall/sequential/residual_stack_._0._._2/conv1d_5/conv1d/required_space_to_batch_paddings/paddings_const_axis", "shape": [], "dtype": "int32"}, {"name": "ConstantFolding/StatefulPartitionedCall/sequential/residual_stack_._0._._2/conv1d_5/conv1d/required_space_to_batch_paddings/crops_const_axis", "shape": [], "dtype": "int32"}, {"name": "ConstantFolding/StatefulPartitionedCall/sequential/residual_stack_._0._._3/conv1d_7/conv1d/stack_const_axis", "shape": [], "dtype": "int32"}, {"name": "ConstantFolding/StatefulPartitionedCall/sequential/residual_stack_._0._._3/conv1d_7/conv1d/required_space_to_batch_paddings/paddings_const_axis", "shape": [], "dtype": "int32"}, {"name": "ConstantFolding/StatefulPartitionedCall/sequential/residual_stack_._0._._3/conv1d_7/conv1d/required_space_to_batch_paddings/crops_const_axis", "shape": [], "dtype": "int32"}, {"name": "ConstantFolding/StatefulPartitionedCall/sequential/residual_stack_._1._._1/conv1d_11/conv1d/stack_const_axis", "shape": [], "dtype": "int32"}, {"name": "ConstantFolding/StatefulPartitionedCall/sequential/residual_stack_._1._._1/conv1d_11/conv1d/required_space_to_batch_paddings/paddings_const_axis", "shape": [], "dtype": "int32"}, {"name": "ConstantFolding/StatefulPartitionedCall/sequential/residual_stack_._1._._1/conv1d_11/conv1d/required_space_to_batch_paddings/crops_const_axis", "shape": [], "dtype": "int32"}, {"name": "ConstantFolding/StatefulPartitionedCall/sequential/residual_stack_._1._._2/conv1d_13/conv1d/stack_const_axis", "shape": [], "dtype": "int32"}, {"name": "ConstantFolding/StatefulPartitionedCall/sequential/residual_stack_._1._._2/conv1d_13/conv1d/required_space_to_batch_paddings/paddings_const_axis", "shape": [], "dtype": "int32"}, {"name": "ConstantFolding/StatefulPartitionedCall/sequential/residual_stack_._1._._2/conv1d_13/conv1d/required_space_to_batch_paddings/crops_const_axis", "shape": [], "dtype": "int32"}, {"name": "ConstantFolding/StatefulPartitionedCall/sequential/residual_stack_._1._._3/conv1d_15/conv1d/stack_const_axis", "shape": [], "dtype": "int32"}, {"name": "ConstantFolding/StatefulPartitionedCall/sequential/residual_stack_._1._._3/conv1d_15/conv1d/required_space_to_batch_paddings/paddings_const_axis", "shape": [], "dtype": "int32"}, {"name": "ConstantFolding/StatefulPartitionedCall/sequential/residual_stack_._1._._3/conv1d_15/conv1d/required_space_to_batch_paddings/crops_const_axis", "shape": [], "dtype": "int32"}, {"name": "ConstantFolding/StatefulPartitionedCall/sequential/residual_stack_._2._._1/conv1d_19/conv1d/stack_const_axis", "shape": [], "dtype": "int32"}, {"name": "ConstantFolding/StatefulPartitionedCall/sequential/residual_stack_._2._._1/conv1d_19/conv1d/required_space_to_batch_paddings/paddings_const_axis", "shape": [], "dtype": "int32"}, {"name": "ConstantFolding/StatefulPartitionedCall/sequential/residual_stack_._2._._1/conv1d_19/conv1d/required_space_to_batch_paddings/crops_const_axis", "shape": [], "dtype": "int32"}, {"name": "ConstantFolding/StatefulPartitionedCall/sequential/residual_stack_._2._._2/conv1d_21/conv1d/stack_const_axis", "shape": [], "dtype": "int32"}, {"name": "ConstantFolding/StatefulPartitionedCall/sequential/residual_stack_._2._._2/conv1d_21/conv1d/required_space_to_batch_paddings/paddings_const_axis", "shape": [], "dtype": "int32"}, {"name": "ConstantFolding/StatefulPartitionedCall/sequential/residual_stack_._2._._2/conv1d_21/conv1d/required_space_to_batch_paddings/crops_const_axis", "shape": [], "dtype": "int32"}, {"name": "ConstantFolding/StatefulPartitionedCall/sequential/residual_stack_._2._._3/conv1d_23/conv1d/stack_const_axis", "shape": [], "dtype": "int32"}, {"name": "ConstantFolding/StatefulPartitionedCall/sequential/residual_stack_._2._._3/conv1d_23/conv1d/required_space_to_batch_paddings/paddings_const_axis", "shape": [], "dtype": "int32"}, {"name": "ConstantFolding/StatefulPartitionedCall/sequential/residual_stack_._2._._3/conv1d_23/conv1d/required_space_to_batch_paddings/crops_const_axis", "shape": [], "dtype": "int32"}, {"name": "ConstantFolding/StatefulPartitionedCall/PartitionedCall/conv1d_transpose/concat/values_0_const_axis", "shape": [], "dtype": "int32"}]}]}